prediction/best_model.pth (torch, 285218 bytes, 19 tensors)

fc1.weight f4 [128, 10]
0	0x3de61cd9	0.11235971
1	0xbe3f83d1	-0.18702628
2	0xbe2ade96	-0.16686472
3	0x39ca64a5	0.00038603428
4	0xbe06078e	-0.1308882
5	0x3e8f987e	0.2804603
6	0xbe9e0015	-0.30859438
7	0xbe6eb0d6	-0.23309645
8	0x3e87e0af	0.26538607
9	0x3c9bd692	0.019023214
10	0x3e9698d1	0.29413465
11	0x3e886ee7	0.26647112
12	0xbe38f7bb	-0.18063252
13	0xbdef3d46	-0.11681609
14	0x3e0bed33	0.13664703
15	0xbea0a4ba	-0.31375676
16	0x3b1b6251	0.0023709724
17	0x3e7982de	0.24366328
18	0x3e9d934e	0.30776447
19	0xbea0b786	-0.31390017
20	0xbe57079e	-0.20999
21	0x3daf281a	0.08552571
22	0xbe04c09e	-0.12964103
23	0xbe7dffa7	-0.24804555
24	0xbe95cad2	-0.29256302
25	0xbd1ff3e8	-0.039050967
26	0xbd955658	-0.072918594
27	0x3e1996f8	0.14998996
28	0x3e656d4b	0.22404973
29	0x3d5c8169	0.053834353
30	0xbe946e74	-0.2899052
31	0x3d1b5417	0.03792199
32	0xbe84bc74	-0.25925028
33	0xbe114506	-0.14186487
34	0xbc4bba3c	-0.012434538
35	0xbe80eed3	-0.25182208
36	0xbe5f2bc1	-0.21794035
37	0xbe1c8e79	-0.15288724
38	0x3d82f552	0.063944474
39	0xbe2a60c9	-0.16638483
40	0x3e374134	0.17895967
41	0x3e83f94d	0.2577614
42	0x3e9c6bb2	0.30550915
43	0x3e02ead7	0.12784897
44	0x3e1fd43c	0.15608305
45	0xbe0a3ad1	-0.13498999
46	0xbe1e35cf	-0.15450214
47	0x3e3ad21f	0.18244217
48	0x3d701c07	0.05862048
49	0xbdabf12b	-0.083956085
50	0x3e2d10bf	0.1690092
51	0xbe87f4d1	-0.26553968
52	0x3e175326	0.14777812
53	0x3e753760	0.23946905
54	0x3e9b121d	0.30287257
55	0x3e10c6b6	0.14138302
56	0xbe100a54	-0.1406644
57	0xbdf04473	-0.11731806
58	0x3d1a9461	0.03773916
59	0xbe77f80d	-0.24215718
60	0x3e8a6520	0.27030277
61	0x3e7f84c9	0.24952997
62	0x3cf70588	0.030154005
63	0xbcb1e600	-0.021716118
64	0xbe09b33a	-0.13447276
65	0xbbfb11eb	-0.007662048
66	0x3da7a7b8	0.08186287
67	0x3c55e850	0.013055876
68	0x3d811c3f	0.06304216
69	0x3c003dc5	0.007827227
70	0xbd89205e	-0.06695627
71	0xbe5a2c40	-0.21305943
72	0xbe0abefd	-0.13549419
73	0xbceddf53	-0.029037153
74	0xbe9c6ac3	-0.30550203
75	0x3e806d7e	0.25083536
76	0x3e7b93b0	0.24568057
77	0xbe65a076	-0.22424492
78	0xbb919c89	-0.0044437093
79	0x3d0eb56a	0.03484098
80	0x3e952069	0.2912629
81	0xbe8b2850	-0.27179193
82	0x3e4b2686	0.19838914
83	0x3e550e85	0.2080632
84	0x3d13b0f5	0.03605743
85	0xbe5902b3	-0.21192436
86	0x3e9cb554	0.30607092
87	0x3ea354e8	0.31900716
88	0xbe8bcc1b	-0.27304158
89	0xbe324ef3	-0.17412929
90	0xbe83ad17	-0.25717995
91	0xbe186fb8	-0.14886367
92	0x3db438dd	0.08799908
93	0xbe3c2d8c	-0.1837675
94	0xbdc113a3	-0.094275735
95	0xbe878020	-0.2646494
96	0x3e34895a	0.1763052
97	0xbe897d8d	-0.268536
98	0x3ddc330e	0.107519254
99	0x3e447756	0.19186148
100	0x3e96b0d3	0.2943178
101	0xbe70829d	-0.23487325
102	0xbe74f4c4	-0.23921496
103	0xbdd0e831	-0.10200537
104	0x3e8d7c7d	0.2763404
105	0xbe6d8dce	-0.23198625
106	0x3e0212bf	0.12702464
107	0xb96c61a0	-0.00022543082
108	0x3d292df1	0.04130358
109	0xbe421e21	-0.18956806
110	0x3e358c17	0.17729221
111	0x3e72205e	0.2364516
112	0x3d4cfda5	0.05004658
113	0xbe2d243d	-0.16908355
114	0x3e7fa10e	0.24963781
115	0xbd1ce8eb	-0.038308065
116	0x3e48a97f	0.19595908
117	0x3e0b817f	0.13623618
118	0xbcbc9db3	-0.023024416
119	0xbe64a597	-0.22328793
120	0x3e541285	0.2071019
121	0xbe358f57	-0.17730461
122	0x3d920c61	0.07131267
123	0xbe820625	-0.25395313
124	0xbce42a73	-0.027852273
125	0xbcdbc2d7	-0.026826305
126	0xbe17bf36	-0.14819035
127	0x3d80b28e	0.062840566
128	0xbde9dec8	-0.11419445
129	0x3ddb72fe	0.107152924
130	0x3dd8d781	0.10587979
131	0xbd4b002f	-0.049560722
132	0x3db6be7f	0.08923053
133	0x3e4ed4c9	0.20198359
134	0xbd73fdb2	-0.059568115
135	0x3e97fc61	0.29684737
136	0xbcc6dce0	-0.024275243
137	0xbe57f9d3	-0.21091394
138	0x3e8f25b8	0.27958465
139	0x3d596c65	0.05308189
140	0xbddb5169	-0.10708887
141	0x3dd4bb8c	0.10387334
142	0x3e8643cd	0.26223603
143	0x3e1fab25	0.1559263
144	0x3e0000ea	0.12500349
145	0x3e881853	0.26581058
146	0xbe2f6a34	-0.17130357
147	0x3d512ae1	0.051066283
148	0x3e7d08d9	0.24710406
149	0x3e799de3	0.24376635
150	0x3e9cd09b	0.30627903
151	0x3e87d7d1	0.26531842
152	0xbe0b9180	-0.13629723
153	0xbde3f150	-0.11130011
154	0x3d921179	0.07132239
155	0x3e903b55	0.28170267
156	0xbe12c40a	-0.14332595
157	0x3d5be63d	0.05368637
158	0x3e315e7e	0.17321202
159	0x3d993efb	0.07482716
160	0x3e24c62f	0.16091226
161	0x3e93aa29	0.2884076
162	0xbe51cb75	-0.20487769
163	0xbc434a3b	-0.011919553
164	0x3e0c238b	0.13685434
165	0x3e8744b0	0.26419592
166	0xbd31670c	-0.043311164
167	0xbe8a367a	-0.26994687
168	0x3d67e061	0.05661047
169	0xbe7fcfbe	-0.24981591
170	0x3e3a0d12	0.18169048
171	0xbe42fc28	-0.19041502
172	0xbe1b843a	-0.15187159
173	0x3e3f7d1a	0.18700066
174	0x3e48f07d	0.19622989
175	0x3d41da37	0.047327247
176	0x3d66fd98	0.05639419
177	0xbe55c9d9	-0.2087778
178	0x3def80fc	0.11694524
179	0xbe3c4096	-0.18384013
180	0x3e7138ac	0.23556775
181	0x3d09feb8	0.033690184
182	0x3e720c89	0.23637594
183	0xbe34163d	-0.17586608
184	0xbdfcc74c	-0.123427
185	0xbe6e7e76	-0.23290429
186	0x3e29f7f7	0.16598497
187	0xbd869b37	-0.06572574
188	0x3cfa221a	0.030533839
189	0xbe68f41c	-0.2274937
190	0xbe585f94	-0.2113021
191	0x3e5446e3	0.20730166
192	0xbc53ce4b	-0.012927602
193	0xbdd39351	-0.10330833
194	0xbe641078	-0.22271907
195	0xbe184885	-0.14871414
196	0x3e6ff644	0.23433787
197	0x3e8c56fb	0.2741011
198	0xbe56f1e4	-0.20990711
199	0xbd397a95	-0.04528292
200	0xbe7b4e99	-0.24541701
201	0xbe801d1e	-0.25022215
202	0x3e3ea607	0.18618022
203	0xbe65c4eb	-0.224384
204	0x3e0f4dc6	0.13994512
205	0x3d2bd98c	0.041955516
206	0x3e77cc26	0.2419897
207	0x3e3dd5d8	0.18538606
208	0x3d944800	0.072402954
209	0xbe9e39a5	-0.30903354
210	0x3e0222b1	0.12708546
211	0x3d023b14	0.031794623
212	0xbe9a4bf4	-0.30136073
213	0xbca1beb0	-0.019744247
214	0xbe4ed7fb	-0.20199578
215	0xbe0245b9	-0.1272191
216	0x3e9b51aa	0.30335742
217	0xbe04cf4e	-0.12969705
218	0x3e85f197	0.2616088
219	0x3d76a3d6	0.06021484
220	0xbe9a155a	-0.30094415
221	0xbdfbcc49	-0.12294824
222	0x3e9c5423	0.3053294
223	0xbc1f7f2f	-0.009734913
224	0xbe277fa6	-0.16357288
225	0xbe915357	-0.28383896
226	0xbe8874de	-0.26651663
227	0x3e13e367	0.14442216
228	0x3e9f07b5	0.31060567
229	0xbe62e56b	-0.22157829
230	0xbe4cac56	-0.19987616
231	0xbe3d8789	-0.18508734
232	0xbd87a604	-0.06623462
233	0x3de447de	0.1114652
234	0xbe9eba35	-0.3100144
235	0x3ca6eb6d	0.020375932
236	0xbe59da32	-0.21274641
237	0xbe734315	-0.23756059
238	0xbdc793c8	-0.09744984
239	0xbe89909f	-0.2686815
240	0xbce01bb1	-0.027356954
241	0x3e2a3bd3	0.16624384
242	0x3d547764	0.051871672
243	0x3da54010	0.080688596
244	0x3e8dc42d	0.27688733
245	0xbb99cb58	-0.00469343
246	0x3e436310	0.19080758
247	0x3ccac4b7	0.024752004
248	0xbd7da0f1	-0.061921064
249	0xbd2ab56e	-0.04167693
250	0xbded52be	-0.115880474
251	0x3e9a4d90	0.301373
252	0xbe50016a	-0.2031304
253	0xbdedb52d	-0.11606822
254	0x3c928462	0.01788539
255	0xbd33f567	-0.043935206

fc1.bias f4 [128]
0	0xbdb0987e	-0.086228356
1	0x3e6117f1	0.21981789
2	0x3e5f71e2	0.21820787
3	0xbdeba074	-0.115052134
4	0xbdd659a2	-0.10466315
5	0xbe9774f4	-0.29581416
6	0xbe143088	-0.14471638
7	0x3e805980	0.25068283
8	0x3e883722	0.26604563
9	0x3e1489f9	0.14505757
10	0xbc431597	-0.011907003
11	0x3e4da940	0.20084095
12	0x3d076993	0.033059668
13	0xbe3a881d	-0.18215986
14	0xbdc059cc	-0.093921274
15	0x3e54bfb8	0.2077626
16	0x3e91b9e8	0.28462148
17	0xbbebf7de	-0.007201179
18	0xbd8d0420	-0.068855524
19	0xbe952491	-0.2912946
20	0x3da1ec66	0.079064175
21	0xbe3f5115	-0.18683274
22	0xbe4d7fd3	-0.20068292
23	0xbe4e5f1f	-0.20153473
24	0xbd8d602a	-0.069031075
25	0xbe9746b5	-0.29546133
26	0x3d6d1f74	0.057891324
27	0x3e1a64b1	0.15077473
28	0x3e817318	0.25283122
29	0x3e4dc374	0.2009409
30	0xbe90f079	-0.28308466
31	0xbd48fb20	-0.049067616
32	0x3d106921	0.03525651
33	0xbe4127c5	-0.18862827
34	0x3e727952	0.23679093
35	0xbddb98b3	-0.107224844
36	0x3d9fdceb	0.07805809
37	0x3e8de3a4	0.2771274
38	0xbe9e2a8f	-0.30891845
39	0x3e54ad10	0.20769143
40	0x3d9f39e5	0.077747144
41	0xbe2d27e1	-0.16909744
42	0x3e4a46f6	0.19753632
43	0x3e8ebd6d	0.27878895
44	0x3e482e21	0.19548847
45	0x3df4c575	0.119517244
46	0x3dd35af9	0.10320086
47	0xbd716ff7	-0.05894467
48	0x3cabc626	0.020968508
49	0x3e7597a0	0.23983622
50	0xbe6d484f	-0.23172115
51	0xbe866d54	-0.26255286
52	0x3e7e520c	0.24835986
53	0x3d7277d8	0.059196323
54	0x3df4cd29	0.11953194
55	0x3e8b575f	0.27215096
56	0x3dddbe0d	0.10827265
57	0x3daf5d97	0.08562773
58	0xbe3d2de0	-0.18474531
59	0xbd28346d	-0.041065622
60	0x3e8852ca	0.26625663
61	0x3e1d6504	0.15370566
62	0xbe2349a5	-0.15946062
63	0x3e28ba79	0.16477384
64	0x3dfb1bff	0.12261199
65	0x3bb7e866	0.005612421
66	0xbdedfc65	-0.11620406
67	0x3d5bc5b5	0.053655345
68	0x3db671cb	0.08908423
69	0x3e7d1bc8	0.24717629
70	0x3d1264a7	0.03574052
71	0xbe8f61a9	-0.28004196
72	0xbe98666e	-0.29765648
73	0xbdadce2e	-0.08486591
74	0x3e384ec9	0.17998804
75	0xbe1452fe	-0.14484784
76	0xbe5df6b3	-0.2167614
77	0x3e53eadd	0.20695062
78	0xbd24fa37	-0.040277686
79	0x3e1b738b	0.15180795
80	0xbe63691a	-0.22208062
81	0xbe0e2022	-0.13879445
82	0xbe92a6a1	-0.28642753
83	0xbe853982	-0.26020437
84	0xbe0bed2d	-0.13664694
85	0xbe901ee1	-0.2814856
86	0x3de77590	0.1130172
87	0x3e697b57	0.22800957
88	0x3dd9f097	0.10641592
89	0xbe9e68f1	-0.3093944
90	0x3e5ca565	0.21547468
91	0x3d9fa45c	0.07795021
92	0x3e073eb8	0.13207519
93	0xbc419371	-0.011814938
94	0xbb690840	-0.0035557896
95	0x3e9de5a9	0.3083928
96	0xbddad48b	-0.106850706
97	0x3d936243	0.07196476
98	0xbd9f51fc	-0.07779309
99	0x3e47e6b8	0.19521606
100	0xbdca0c5f	-0.09865641
101	0xbcd9cbe9	-0.02658649
102	0x3ddad209	0.10684592
103	0xbd08e50f	-0.033421572
104	0x3d646e08	0.055768996
105	0x3e0a7b16	0.13523516
106	0x3e8762e4	0.26442635
107	0xbe7e6f51	-0.24847151
108	0xbe4f64b4	-0.20253259
109	0xbdbf3c7f	-0.093377106
110	0x3e0ed5f8	0.1394881
111	0xbe2c5e20	-0.16832781
112	0x3de0f6f8	0.109846056
113	0x3d040f6c	0.03224127
114	0x3d382bd6	0.04496368
115	0x3d967aba	0.07347627
116	0x3d877527	0.06614142
117	0xbe18c58d	-0.1491911
118	0x3d111a69	0.035425577
119	0x3b6f5dd7	0.0036524439
120	0xbe819e91	-0.2531629
121	0xbea13903	-0.3148881
122	0xbe9d24e9	-0.30692223
123	0x3c5e7080	0.013576627
124	0xbdea22c0	-0.11432409
125	0x3e9adab2	0.30244976
126	0x3c875c63	0.016523546
127	0x3e4ae2fe	0.19813153

bn1.weight f4 [128]
0	0x3f800b81	1.0003511
1	0x3f7fc3ac	0.99907947
2	0x3f7fa447	0.9986004
3	0x3f7fd00d	0.99926835
4	0x3f7fe571	0.99959475
5	0x3f7f5e1f	0.9975299
6	0x3f802bc5	1.0013357
7	0x3f7fc70f	0.99913114
8	0x3f7f570c	0.997422
9	0x3f8002e7	1.0000886
10	0x3f7fff43	0.99998873
11	0x3f7fe488	0.99958086
12	0x3f7fc931	0.9991637
13	0x3f80119c	1.0005374
14	0x3f7fa84b	0.9986617
15	0x3f7f95e3	0.99838084
16	0x3f7ff4eb	0.9998309
17	0x3f7fb323	0.99882716
18	0x3f7fcb0d	0.99919206
19	0x3f7fd119	0.9992843
20	0x3f806ec9	1.0033809
21	0x3f7f409a	0.9970795
22	0x3f801d3e	1.0008924
23	0x3f7fe222	0.99954426
24	0x3f800c4d	1.0003754
25	0x3f7f5742	0.9974252
26	0x3f7fa1b7	0.9985613
27	0x3f7ff202	0.9997865
28	0x3f7fcd94	0.9992306
29	0x3f7fbc64	0.99896836
30	0x3f7f8c7c	0.9982374
31	0x3f7f5e94	0.9975369
32	0x3f804434	1.0020814
33	0x3f7fb940	0.99892044
34	0x3f7fde07	0.9994816
35	0x3f7fc686	0.999123
36	0x3f7f0100	0.996109
37	0x3f7f69e2	0.9977094
38	0x3f7fd620	0.99936104
39	0x3f7fad2c	0.99873614
40	0x3f808565	1.0040709
41	0x3f7f2711	0.99668986
42	0x3f7f30f5	0.9968408
43	0x3f7fb900	0.9989166
44	0x3f7fa16a	0.99855673
45	0x3f7fd0fa	0.9992825
46	0x3f7fc149	0.99904305
47	0x3f800c84	1.000382
48	0x3f800236	1.0000675
49	0x3f7f4159	0.9970909
50	0x3f7f74cd	0.997876
51	0x3f7f3d1d	0.99702626
52	0x3f7f8c4c	0.9982345
53	0x3f8024da	1.0011246
54	0x3f7fca44	0.9991801
55	0x3f80111e	1.0005224
56	0x3f8013f0	1.0006084
57	0x3f7f5014	0.99731565
58	0x3f7faf7e	0.99877155
59	0x3f7fdcda	0.9994637
60	0x3f7ffe9d	0.99997884
61	0x3f7ffd1a	0.9999558
62	0x3f7f469e	0.9971713
63	0x3f7facd9	0.9987312
64	0x3f7ffb32	0.9999267
65	0x3f8007a2	1.0002329
66	0x3f80010f	1.0000323
67	0x3f7f4b2d	0.99724084
68	0x3f7ffcbe	0.9999503
69	0x3f7fe903	0.9996492
70	0x3f7fa059	0.99854046
71	0x3f801668	1.0006838
72	0x3f7ffb6e	0.99993026
73	0x3f7ffb81	0.9999314
74	0x3f8011ba	1.000541
75	0x3f7f59bf	0.99746317
76	0x3f7fa39f	0.9985904
77	0x3f802500	1.0011292
78	0x3f804081	1.0019685
79	0x3f7f52ad	0.9973553
80	0x3f7f1901	0.9964753
81	0x3f7fd3e3	0.9993269
82	0x3f801658	1.0006819
83	0x3f7f3499	0.9968963
84	0x3f7f84b5	0.9981187
85	0x3f8006d3	1.0002083
86	0x3f7ffe9e	0.9999789
87	0x3f802901	1.0012513
88	0x3f7f7636	0.9978975
89	0x3f7fcd7f	0.9992294
90	0x3f801f3d	1.0009533
91	0x3f7f0f64	0.9963286
92	0x3f7f94e5	0.9983657
93	0x3f7fb51b	0.9988572
94	0x3f7ff4b1	0.99982744
95	0x3f7fbaf5	0.9989465
96	0x3f80503a	1.0024483
97	0x3f801187	1.0005349
98	0x3f7fc6e3	0.9991285
99	0x3f7f3d4c	0.99702907
100	0x3f7fef18	0.99974203
101	0x3f7fbfa3	0.9990179
102	0x3f7fe691	0.9996119
103	0x3f7f967f	0.99839014
104	0x3f802a06	1.0012825
105	0x3f7fb62d	0.99887353
106	0x3f80087e	1.0002592
107	0x3f7fb131	0.9987975
108	0x3f7f72b6	0.9978441
109	0x3f7f97ae	0.9984082
110	0x3f7fb874	0.9989083
111	0x3f7f9302	0.9983369
112	0x3f7fae4e	0.9987534
113	0x3f7f75cf	0.99789137
114	0x3f802c45	1.001351
115	0x3f802211	1.0010396
116	0x3f8003b6	1.0001132
117	0x3f7fca40	0.99917984
118	0x3f8029e4	1.0012784
119	0x3f7f3ee6	0.9970535
120	0x3f7fa2eb	0.9985797
121	0x3f7f9cd1	0.9984866
122	0x3f8018fa	1.0007622
123	0x3f7f6bf7	0.99774116
124	0x3f7fc683	0.9991228
125	0x3f8021e4	1.0010343
126	0x3f7ffab2	0.99991906
127	0x3f7f7314	0.9978497

bn1.bias f4 [128]
0	0x39d3af17	0.00040375508
1	0x39b0d699	0.00033729224
2	0xba0d3dbd	-0.0005387923
3	0xb9987471	-0.00029078455
4	0x3a05c5d8	0.00051030284
5	0xb9d3dfa3	-0.00040411678
6	0x3ab5b3be	0.0013862771
7	0xba8cc8cb	-0.0010740993
8	0x39c6ac3f	0.00037893836
9	0x3a52a080	0.00080347806
10	0xbaaaec55	-0.0013040403
11	0x3a43bfe7	0.00074672553
12	0x39aa7bd4	0.00032517186
13	0x3b4d958c	0.0031369654
14	0xba7c7be2	-0.0009631497
15	0xba2f48d1	-0.00066865707
16	0xba507bc1	-0.0007953011
17	0x3a71b1b5	0.0009219901
18	0xb7d4a5ec	-2.5349633e-05
19	0xb911d85c	-0.00013908878
20	0x3ad56e5b	0.0016283499
21	0xbb140b18	-0.002258962
22	0x3ab5c221	0.0013867059
23	0xba00964d	-0.0004905209
24	0x3a827d05	0.0009955472
25	0xba0cf93e	-0.0005377716
26	0x3a38d24a	0.00070503785
27	0xba257b30	-0.0006312607
28	0x3a65e266	0.0008769393
29	0xba8f26d7	-0.0010921609
30	0xba46e3fd	-0.00075870735
31	0xba428255	-0.00074199337
32	0x3a8006be	0.0009767634
33	0xb8a82038	-8.0168655e-05
34	0xb97587bd	-0.00023415587
35	0xba52d76a	-0.00080429635
36	0x39e36396	0.0004337101
37	0xba35380b	-0.0006912953
38	0xba75109d	-0.0009348484
39	0xb922012d	-0.00015449962
40	0x3ab87d7c	0.0014075483
41	0xbb0c77b1	-0.0021433646
42	0xba0e829e	-0.00054363336
43	0x39d01f24	0.00039696053
44	0x3a04a044	0.0005059282
45	0xb9edd45f	-0.0004536239
46	0xb9f4c712	-0.00046687626
47	0x39c47ae3	0.0003747559
48	0x39e816d6	0.00044267502
49	0xbae036c2	-0.0017106163
50	0xb98ce340	-0.00026872195
51	0xbab9ff0b	-0.0014190389
52	0xba4b9db1	-0.00077673333
53	0x3a2944c5	0.0006457086
54	0xb9238555	-0.00015594561
55	0x399bc2d1	0.00029709053
56	0x3ad58fa5	0.001629342
57	0xba8e9aeb	-0.0010879909
58	0x37a72c31	1.992853e-05
59	0x39efc1dc	0.0004573007
60	0x39ab1122	0.00032628427
61	0xba2d7f05	-0.00066183537
62	0xba034622	-0.0005007704
63	0xba1ffb22	-0.00061027904
64	0xb96aa69b	-0.00022378044
65	0x3a28f379	0.00064449717
66	0x39ecf1a0	0.00045193452
67	0xba8f55a8	-0.0010935562
68	0x39cfbdec	0.0003962362
69	0xb99198d1	-0.00027770412
70	0xba2470cb	-0.0006272911
71	0x3a2f9900	0.0006698519
72	0x3a802626	0.0009776994
73	0x39cd1786	0.00039118173
74	0x3aa90dde	0.001289781
75	0xbb2f69df	-0.0026765985
76	0xbb003296	-0.0019561402
77	0x39e40035	0.00043487703
78	0x3a082297	0.00051931426
79	0xbaa213ba	-0.0012365498
80	0xbb2ba2e0	-0.002618961
81	0xb9db9ee5	-0.0004188932
82	0x3a0b59b4	0.0005315796
83	0xbafe0b1b	-0.0019381972
84	0xb93c2e12	-0.0001794624
85	0x39fc79e4	0.00048156
86	0xba77fcaf	-0.0009459955
87	0x38746cdf	5.8275527e-05
88	0xbb0bb74e	-0.0021318975
89	0xba06020a	-0.0005111998
90	0x3adccc0f	0.0016845482
91	0xbb1ba5e5	-0.0023750004
92	0xbb0844e1	-0.0020793008
93	0xbac65eb2	-0.0015134423
94	0xba2f778a	-0.0006693533
95	0xb83b07ab	-4.4591416e-05
96	0x39f79b2b	0.0004722712
97	0x3a8e10c9	0.0010838743
98	0x3931c755	0.00016954292
99	0xbabc7f46	-0.0014381192
100	0x395bae56	0.00020950413
101	0xb9b78e00	-0.00035010278
102	0x3985f304	0.00025548798
103	0x3a8ca8bc	0.0010731439
104	0x39475278	0.00019008841
105	0x3a4ae987	0.0007740487
106	0xb91ce9ae	-0.00014964372
107	0x39817881	0.0002469458
108	0xbae4b0be	-0.0017447693
109	0x3a16128f	0.00057248113
110	0x3a4f1730	0.00078998785
111	0x383f89ba	4.5666216e-05
112	0xb9e57cc1	-0.00043771233
113	0xbabdc9f8	-0.0014479747
114	0x3a973c23	0.0011538308
115	0xba1a3119	-0.000588195
116	0xb8f57394	-0.000117040385
117	0x39e996c7	0.0004455356
118	0x3a84c2db	0.0010128872
119	0xba6f11e3	-0.0009119792
120	0x3a24a6aa	0.00062809384
121	0x3a37493f	0.00069918105
122	0x3a57038d	0.0008202128
123	0xbadb15c3	-0.001671486
124	0x3a86e33d	0.0010291111
125	0x3b36e364	0.0027906531
126	0x39b452d5	0.0003439399
127	0xb9599bfe	-0.00020752844

bn1.running_mean f4 [128]
0	0xbdad0b55	-0.08449427
1	0x3e5656e1	0.20931579
2	0x3e606d21	0.2191663
3	0xbdf087c7	-0.117446475
4	0xbddafc30	-0.10692632
5	0xbe94588e	-0.28973812
6	0xbe1c0211	-0.15235163
7	0x3e81a4c1	0.2532101
8	0x3e8b58a1	0.27216056
9	0x3e0fbb9e	0.14036414
10	0xbc88cc40	-0.016698956
11	0x3e49d018	0.19708288
12	0x3d1a43bd	0.037662257
13	0xbe3c20c5	-0.18371876
14	0xbdbc9836	-0.092087194
15	0x3e4eff5a	0.20214596
16	0x3e8e24d4	0.27762473
17	0xbc2e3fc3	-0.010635319
18	0xbd9338fe	-0.07188605
19	0xbe943a92	-0.28950936
20	0x3dbc183e	0.09184311
21	0xbe4cf942	-0.2001696
22	0xbe448e04	-0.191948
23	0xbe460fd5	-0.19341977
24	0xbd958a3a	-0.07301755
25	0xbe9e12f3	-0.30873832
26	0x3d83739a	0.064185336
27	0x3e20735e	0.15669009
28	0x3e8134be	0.25235552
29	0x3e45120f	0.1924517
30	0xbe931ee1	-0.28734496
31	0xbd5482fa	-0.05188272
32	0x3cbf2cf6	0.023336869
33	0xbe3df3b4	-0.18549997
34	0x3e737651	0.23775603
35	0xbddada72	-0.106861964
36	0x3d8cd0fb	0.06875797
37	0x3e88ec24	0.2674266
38	0xbe98e376	-0.2986104
39	0x3e59c1f0	0.21265388
40	0x3d9e4768	0.077284634
41	0xbe3ff22c	-0.18744725
42	0x3e3edfd6	0.18640074
43	0x3e903d0c	0.28171575
44	0x3e4f047d	0.20216556
45	0x3dffab80	0.12483883
46	0x3de24be5	0.11049632
47	0xbd609c06	-0.054836296
48	0x3d0d254f	0.03445941
49	0x3e6ddbe2	0.2322841
50	0xbe654607	-0.22389995
51	0xbe84ab24	-0.2591182
52	0x3e7eebe6	0.24894676
53	0x3d4000c8	0.046875745
54	0x3e019da1	0.12657787
55	0x3e898a2e	0.26863235
56	0x3dd8d88c	0.10588178
57	0x3d9c8372	0.07642259
58	0xbe4b4b7c	-0.19853014
59	0xbd1ee3c3	-0.03879143
60	0x3e8de753	0.2771555
61	0x3e1e3436	0.15449604
62	0xbe26b0fa	-0.16278449
63	0x3e2e430b	0.17017762
64	0x3ded6f9e	0.11593555
65	0x3b623c63	0.0034520857
66	0xbdf197ca	-0.117965296
67	0x3d248000	0.040161133
68	0x3db088ba	0.086198285
69	0x3e7c6920	0.24649477
70	0x3cf2183c	0.029552571
71	0xbe909a05	-0.28242508
72	0xbe959592	-0.29215676
73	0xbdab9477	-0.08377927
74	0x3e3800c7	0.17969047
75	0xbe1490d0	-0.14508367
76	0xbe54221f	-0.20716141
77	0x3e4e9744	0.20174891
78	0xbd04a2d6	-0.032381855
79	0x3e21d612	0.15804318
80	0xbe60de02	-0.2195969
81	0xbe04a410	-0.1295321
82	0xbe8c9cd2	-0.27463394
83	0xbe81965c	-0.25310028
84	0xbe068869	-0.13137974
85	0xbe8eb224	-0.27870286
86	0x3ddf3c08	0.10900122
87	0x3e69f3c6	0.22846898
88	0x3dccc2e2	0.099981084
89	0xbe9cf66d	-0.30656758
90	0x3e59c54a	0.21266666
91	0x3d9ac0bc	0.075562924
92	0x3e0982a1	0.13428737
93	0xbcaae09c	-0.020859055
94	0xbaf2ee04	-0.0018534069
95	0x3ea048f6	0.31305665
96	0xbde98c1e	-0.11403678
97	0x3d6bdef9	0.05758569
98	0xbda2dcd0	-0.07952273
99	0x3e41e8fe	0.18936536
100	0xbddf4a13	-0.109028004
101	0xbd0c341a	-0.034229375
102	0x3dc28e5b	0.094998084
103	0xbd0fc6a0	-0.035101533
104	0x3d84c0b2	0.06482066
105	0x3e141c8c	0.14464015
106	0x3e8f75de	0.28019613
107	0xbe7e93fe	-0.24861142
108	0xbe4e51e9	-0.20148434
109	0xbdbd8e94	-0.0925571
110	0x3e0ff84e	0.14059564
111	0xbe33935e	-0.17536685
112	0x3ddc14b7	0.107461385
113	0x3d06d35f	0.032916423
114	0x3d231028	0.03981033
115	0x3d93896c	0.072039455
116	0x3d9614e7	0.073282056
117	0xbe1f6a56	-0.15567908
118	0x3cf7bc30	0.030241102
119	0xbc1120c1	-0.008857907
120	0xbe839453	-0.256991
121	0xbea514a8	-0.32242322
122	0xbe9889ee	-0.29792732
123	0x3bbc9f50	0.005756296
124	0xbdf9345c	-0.1216819
125	0x3e9e5b5a	0.3092907
126	0x3c160bda	0.009158099
127	0x3e531002	0.20611575

bn1.running_var f4 [128]
0	0x3eb49f1b	0.35277638
1	0x3f1484cc	0.5801513
2	0x3e853820	0.26019382
3	0x3e849bd2	0.2590013
4	0x3ea66a5b	0.32503018
5	0x3e919902	0.28437048
6	0x3e24e5bb	0.1610326
7	0x3ef3e663	0.4763671
8	0x3ee24234	0.44191134
9	0x3ecf1a9b	0.40449986
10	0x3ed7fabe	0.4218349
11	0x3e8b272c	0.27178323
12	0x3e66fb8f	0.225569
13	0x3e8e15c7	0.2775099
14	0x3e916a65	0.28401485
15	0x3e9cf6c5	0.3065702
16	0x3eaab8b6	0.33344048
17	0x3e95a076	0.29223984
18	0x3ea885f9	0.32914713
19	0x3e7abb0e	0.24485418
20	0x3ed49d1e	0.4152612
21	0x3eb3d98c	0.35126913
22	0x3f0c2c37	0.54754966
23	0x3ea70012	0.3261724
24	0x3e144f4c	0.14483374
25	0x3e912efc	0.2835616
26	0x3ec1f18e	0.37879604
27	0x3eca0e19	0.3946388
28	0x3eab2510	0.33426714
29	0x3ea03fff	0.31298825
30	0x3ec902d7	0.3925998
31	0x3e7d1a5b	0.24717085
32	0x3f0c2d1b	0.54756325
33	0x3e867e52	0.2626825
34	0x3eb83adc	0.35982406
35	0x3e6d9d78	0.23204601
36	0x3eec9af4	0.4621197
37	0x3ec74065	0.38916317
38	0x3ea226a8	0.31670117
39	0x3e86a4f5	0.26297727
40	0x3e970f33	0.29503784
41	0x3ee8b8bc	0.4545344
42	0x3e44becc	0.19213408
43	0x3eb29b83	0.3488427
44	0x3e677e4c	0.22606772
45	0x3dfc92f7	0.12332719
46	0x3e921e51	0.28538755
47	0x3eaecb4f	0.34139487
48	0x3ea87c9f	0.32907578
49	0x3ed148ea	0.40875942
50	0x3e9a3051	0.30114987
51	0x3ec65822	0.38739115
52	0x3eb4bc44	0.35299885
53	0x3e920392	0.2851835
54	0x3ef80775	0.4844319
55	0x3ea613f2	0.32437092
56	0x3eb5259d	0.3538026
57	0x3ea0a9b2	0.31379467
58	0x3ead12b5	0.33803335
59	0x3ebfb7e9	0.37445
60	0x3e900968	0.28132176
61	0x3ec5629d	0.38551798
62	0x3e1d5f2a	0.15368333
63	0x3f04e174	0.51906514
64	0x3ec8160f	0.3907933
65	0x3ee3f2be	0.44521135
66	0x3f0cfc3f	0.55072397
67	0x3eb77041	0.3582783
68	0x3ee8d0e5	0.45471874
69	0x3eb24f89	0.34826306
70	0x3e9201fa	0.28517133
71	0x3eef762f	0.46769854
72	0x3e5ed6ba	0.21761599
73	0x3ec74eb6	0.3892724
74	0x3e07435a	0.13209286
75	0x3e667972	0.22507265
76	0x3e9e69c3	0.30940065
77	0x3eb50c9b	0.3536118
78	0x3eb5805a	0.35449487
79	0x3e800044	0.25000203
80	0x3ed36d9d	0.41294566
81	0x3ec81ea4	0.39085877
82	0x3e9f8a80	0.31160355
83	0x3eb795e4	0.35856545
84	0x3e648eef	0.2232015
85	0x3ea5b41a	0.3236397
86	0x3e60272d	0.21889944
87	0x3ef18c78	0.47177482
88	0x3e8c3034	0.27380526
89	0x3e627ad6	0.2211717
90	0x3ea6fbf4	0.326141
91	0x3ea9bf82	0.3315392
92	0x3e587e0d	0.21141835
93	0x3e7d0ae7	0.2471119
94	0x3ecac1d9	0.3960102
95	0x3e96384d	0.2933983
96	0x3eaf2f11	0.34215596
97	0x3ef1ff94	0.47265303
98	0x3e5e7d14	0.21727401
99	0x3e634397	0.22193752
100	0x3eaf3bc8	0.34225297
101	0x3eb3fda1	0.3515444
102	0x3f25d10a	0.64772093
103	0x3ec12743	0.37725267
104	0x3e631bb0	0.2217853
105	0x3eeecc34	0.4664017
106	0x3ea258e9	0.31708458
107	0x3ec70990	0.38874483
108	0x3f005bd6	0.5014013
109	0x3ee5229b	0.44752964
110	0x3eda5cfe	0.42649072
111	0x3f01a048	0.50635195
112	0x3eaae9b1	0.33381417
113	0x3ea09ecb	0.3137115
114	0x3e891f0f	0.26781508
115	0x3ee079b7	0.4384286
116	0x3e7b2375	0.24525245
117	0x3e356c27	0.17717038
118	0x3e2ea2fc	0.17054361
119	0x3f0d9d8c	0.5531852
120	0x3ebb12b1	0.36537698
121	0x3ea206b8	0.3164575
122	0x3eaf2e3d	0.34214965
123	0x3e8b5dc8	0.27219987
124	0x3ed3b37a	0.41347867
125	0x3ec68c41	0.3877888
126	0x3e66d9a8	0.22543967
127	0x3ec40415	0.38284364

fc2.weight f4 [256, 128]
0	0xbd7d3bb6	-0.061824523
1	0x3d74044b	0.059574407
2	0xbd8cb51c	-0.06870481
3	0x3db71475	0.08939449
4	0x3dab8a63	0.083760045
5	0x3c53f735	0.012937357
6	0xbd9fd4cf	-0.07804262
7	0xbd10b08e	-0.035324626
8	0xbd7b5d52	-0.061368294
9	0x3c9e25b5	0.01930509
10	0xbda48384	-0.08032897
11	0x3d35fa68	0.04442826
12	0xbd084102	-0.03326512
13	0x3dabd9fd	0.08391187
14	0xba82cd8f	-0.0009979474
15	0x3d52851d	0.051396478
16	0xbc83a858	-0.016071483
17	0x3da141a5	0.07873849
18	0x3c2ada7e	0.010428069
19	0x3d65ea37	0.056131568
20	0x3cdc4cf9	0.026892172
21	0xbc9dd3a2	-0.019265953
22	0xbda19c02	-0.07891084
23	0x3d98fca1	0.0747006
24	0xbd0ad264	-0.03389205
25	0xbd8c05a8	-0.06837016
26	0xbcceb36d	-0.025232041
27	0xbcd29bda	-0.025709081
28	0x3d21cbe5	0.03950109
29	0xbcfb1098	-0.030647561
30	0xbd8244dc	-0.0636079
31	0xbd49eb0b	-0.04929642
32	0x3d272230	0.040804088
33	0x3c76e256	0.015068611
34	0x3d384c3c	0.044994578
35	0x3d9ee4fb	0.07758518
36	0xbd4eb575	-0.05046602
37	0x3bf1a20a	0.007374053
38	0xbd521295	-0.051287252
39	0xbd23cbf4	-0.039989427
40	0xbd8d7613	-0.069072865
41	0x3d0b8a50	0.034067452
42	0x3d73b3d3	0.059497666
43	0x3c0a3758	0.008436047
44	0xbd2f046c	-0.042728826
45	0xbd7c073b	-0.061530333
46	0xbcab76dd	-0.020930702
47	0x3d2ef6d1	0.04271585
48	0x3cc401e9	0.023926692
49	0x3d7be217	0.061494913
50	0x3d8ba2df	0.068181746
51	0x3d9f220f	0.07770168
52	0x3cccdae8	0.025006726
53	0x3db3f57d	0.087870575
54	0xbd97d5d3	-0.074138306
55	0xbd03f929	-0.03222004
56	0x3cc6b277	0.02425502
57	0x3d742671	0.059606973
58	0xbc33c97b	-0.01097333
59	0x3d71dbc7	0.059047487
60	0x3d763b2d	0.06011503
61	0xbc0e985e	-0.008703319
62	0x3c69cd8a	0.014270196
63	0x3cac5363	0.021035856
64	0x3d157133	0.03648491
65	0xbc2e1e3c	-0.010627326
66	0xbb785920	-0.003789492
67	0xbcbdd272	-0.023171637
68	0xbd809d6d	-0.062800266
69	0xbcd8e5bd	-0.026476735
70	0x3d8f1e0c	0.06988153
71	0x3d90f70d	0.07078371
72	0xbd89bca4	-0.067254335
73	0x3d2839a6	0.041070603
74	0xbd8782ea	-0.06616767
75	0xbc7aae5a	-0.015300358
76	0x3ca59af8	0.020215496
77	0xbcf47079	-0.029838787
78	0xbcbd765a	-0.023127723
79	0x3b9d05e1	0.0047919606
80	0x3bd888fe	0.0066081276
81	0x3d56e025	0.052459855
82	0xbd650351	-0.055911366
83	0x3d3993f2	0.045307107
84	0x3d663b37	0.056208815
85	0x3c44f6d2	0.012021737
86	0x3d97be1f	0.074093096
87	0x3d8a8a1f	0.06764626
88	0xbc276ada	-0.0102183465
89	0x3d0d5794	0.03450735
90	0x3c83562f	0.016032306
91	0x3d8d487a	0.068985894
92	0xbc8197c9	-0.015819447
93	0xbd6bdbba	-0.057582594
94	0x3d95354c	0.07285556
95	0xbc9e8d8e	-0.019354608
96	0xbc2db9d6	-0.010603389
97	0x3da1f3f4	0.079078585
98	0xbd80c114	-0.06286827
99	0x3d88bd6b	0.066767536
100	0x3c9b8646	0.018984925
101	0x3d8224d8	0.06354684
102	0xbda5e834	-0.0810093
103	0x3d0cd4c1	0.034382585
104	0x3d289db5	0.041166026
105	0xbd4e65ee	-0.050390176
106	0x3a319ac4	0.0006775076
107	0x3cc6ef60	0.024284065
108	0x3c8afade	0.016965326
109	0x3cdd7e69	0.027037816
110	0xbd094e00	-0.033521652
111	0xbda8a7fc	-0.082351655
112	0xbdabd86f	-0.08390891
113	0xbbac8028	-0.005264301
114	0xbd233f85	-0.0398555
115	0x3d9fba71	0.07799233
116	0x3d8e1c39	0.06938977
117	0xbd883964	-0.066515714
118	0xbcff3eeb	-0.031157931
119	0x3dad3c83	0.08458807
120	0xbd7cf3d2	-0.061755963
121	0xbdad95f4	-0.08475867
122	0xbd37c1a5	-0.04486241
123	0x3b36b917	0.0027881318
124	0xbc2dc356	-0.010605654
125	0x3c7d5cde	0.015464036
126	0xbda60654	-0.08106676
127	0x3d79fbb9	0.061031077
128	0xbc89241f	-0.016740857
129	0xbc7f8938	-0.01559668
130	0x3d2e6ffe	0.042587273
131	0xbc31b49f	-0.010846286
132	0xbd31b2be	-0.043383352
133	0x3d88a6dc	0.06672451
134	0x3d009502	0.031392105
135	0xbd92e15a	-0.07171889
136	0xbc804db9	-0.015662061
137	0x3c36ca10	0.011156574
138	0x3d95b5aa	0.0731004
139	0xbc94dcfa	-0.018171776
140	0x3d17af70	0.037032545
141	0x3da2582e	0.07926975
142	0x3d8c1185	0.06839279
143	0x3d5c7a22	0.053827412
144	0x3d919c5d	0.07109902
145	0x3d31381b	0.043266397
146	0x3cd3e94b	0.025868079
147	0xbd8ef108	-0.06979567
148	0xbd99a76c	-0.07502636
149	0xbd95e8ef	-0.07319819
150	0xbcbcff28	-0.023070887
151	0x3d43f7cf	0.04784375
152	0x3cc6ed90	0.0242832
153	0xbd132339	-0.035922263
154	0x3d80bcb3	0.062859915
155	0x3d63fc60	0.055660605
156	0xbd0b124e	-0.033953004
157	0x3d928a87	0.07155328
158	0x3d037b2f	0.0320999
159	0xbd34fe01	-0.04418755
160	0xbd533f9b	-0.05157433
161	0x3d51a33f	0.051181074
162	0xbd494592	-0.049138613
163	0xbbe59dbb	-0.0070073283
164	0x3ca85860	0.020549953
165	0x3d8ce960	0.0688045
166	0x3ceacab4	0.02866111
167	0x3d15b8d0	0.036553204
168	0xbd37ec3c	-0.044903025
169	0xbd86e6e5	-0.065870084
170	0x3d3b17a5	0.045676846
171	0xbd0b466a	-0.0340027
172	0x3d3ce5e2	0.04611767
173	0xbcc3376d	-0.02383014
174	0xbd86df3f	-0.065855496
175	0x3d1686ff	0.036749836
176	0xbd9b722b	-0.07590135
177	0x3c05744f	0.008145406
178	0x3d13cd7e	0.036084644
179	0xbc102789	-0.008798488
180	0x3d52fda9	0.05151144
181	0x3c993152	0.018700276
182	0xbd9e2968	-0.07722741
183	0xbd7f3b4d	-0.062312413
184	0xbc84ea0b	-0.016224882
185	0x3d1bcfd5	0.03804
186	0x3d55c20d	0.052187014
187	0x3d944182	0.07239057
188	0xbd978052	-0.07397522
189	0xbda53598	-0.08066863
190	0x3b423a6a	0.0029636868
191	0xbd7bc253	-0.06146462
192	0x38f4300a	0.000116437746
193	0xbcfeea41	-0.03111756
194	0x3d562fdf	0.052291747
195	0xbd3fa820	-0.046791196
196	0xba8c3ac0	-0.0010698661
197	0xbcad56cc	-0.021159552
198	0xbdac9b59	-0.08428068
199	0x3da8cc73	0.082421206
200	0xbac59d3c	-0.0015076767
201	0xbc2c409e	-0.010513453
202	0x3dadc835	0.08485452
203	0x3c2141f9	0.009842389
204	0xbd7ff80e	-0.062492423
205	0x3d625737	0.055258956
206	0xbd36799f	-0.04454958
207	0xbdaf8e8d	-0.08572111
208	0x3bb736e1	0.005591259
209	0x38b888ad	8.7992616e-05
210	0x3dafaae0	0.08577514
211	0x3daee33d	0.08539436
212	0xbd24e96f	-0.040261682
213	0x3d50381d	0.050834764
214	0xbcf37b43	-0.029721862
215	0x3cfc8928	0.03082712
216	0x3d221c5c	0.039577827
217	0x3d878cfc	0.066186875
218	0x3d5f4f63	0.05451907
219	0x3da52698	0.08064002
220	0xbd115625	-0.035482544
221	0x3cfe0e04	0.031012543
222	0x3c85d385	0.016336212
223	0x3d8c4788	0.06849581
224	0xbd2e4ea0	-0.04255545
225	0x3d11a470	0.03555721
226	0x3d5d0196	0.05395659
227	0xbd64d9ad	-0.055871654
228	0xbc6a593e	-0.014303504
229	0x3db36d30	0.0876106
230	0xbda412dc	-0.0801141
231	0x3be64330	0.0070270523
232	0x3d2ddd3e	0.04244732
233	0x3d38f7c9	0.04515818
234	0x3d375082	0.044754513
235	0x3b399028	0.0028314684
236	0xbdaf312b	-0.085543
237	0x3cfbf171	0.030754777
238	0x3d1b746b	0.03795282
239	0xbd072772	-0.032996602
240	0x3cc2dcd9	0.023786949
241	0x3d73987d	0.059471596
242	0xbd86a3cd	-0.06574211
243	0xbd5217bd	-0.05129217
244	0x3bb84eae	0.0056246137
245	0xbcaebe7d	-0.021331066
246	0x3cb1ff48	0.021728173
247	0xbcea81aa	-0.028626282
248	0x3c63db3e	0.013907252
249	0xbcb76ffc	-0.022392265
250	0x3cafca4d	0.02145877
251	0x3d8220e1	0.063539274
252	0x3cf53581	0.02993274
253	0xbce7d5ef	-0.028300254
254	0x3d6e560a	0.058187522
255	0xbcd07360	-0.02544564

fc2.bias f4 [256]
0	0xbd60350e	-0.054738097
1	0x3c9ddde2	0.019270841
2	0xbd80c17a	-0.06286903
3	0x3d236082	0.03988696
4	0xbc8d0f79	-0.017219292
5	0x3d92ae4b	0.0716215
6	0x3d8a13b1	0.06742037
7	0x3bdc7845	0.0067282044
8	0xbd739334	-0.059466556
9	0xbd6abe79	-0.057310555
10	0x3dafc839	0.08583111
11	0xbcc69214	-0.024239577
12	0x3c7ab584	0.015302066
13	0x3d2bdbe7	0.041957762
14	0xbdaca598	-0.08430022
15	0x3d7de7b3	0.061988544
16	0x3d51a9dd	0.051187385
17	0x3cc53543	0.024073249
18	0x3d48d1ad	0.049028087
19	0x3d97073f	0.07374429
20	0x3d15e782	0.036597736
21	0xbc6ab34f	-0.014324977
22	0x3d4e0b6e	0.05030387
23	0xbd776f6d	-0.060409
24	0xbc14abce	-0.009074165
25	0x3da7a70d	0.08186159
26	0xbb92c253	-0.0044787317
27	0x3d466cd1	0.04844362
28	0xbdaf55ed	-0.08561311
29	0x3c9ff046	0.019523751
30	0xbda2eeba	-0.0795569
31	0x3da4f48a	0.080544546
32	0x3d82f896	0.0639507
33	0xbd0c3b2c	-0.03423612
34	0xbdac363a	-0.084087804
35	0xbd986b68	-0.07442361
36	0xbda39411	-0.07987226
37	0x3c47fbd1	0.012206034
38	0x3c0cf345	0.008602922
39	0xbc4f9a55	-0.012671073
40	0xbc3068b3	-0.01076715
41	0xbc991520	-0.018686831
42	0xbd28733b	-0.041125517
43	0x3c9bc130	0.019013017
44	0x3c98bf15	0.018645803
45	0x3d635846	0.055504106
46	0xbdac3cbe	-0.08410023
47	0xbdaba5b0	-0.08381212
48	0x3d301875	0.042992074
49	0xbdafa34b	-0.085760675
50	0xbd676ec4	-0.05650212
51	0x3d5684b5	0.052372653
52	0x3da6055c	0.08106491
53	0xbd6a472a	-0.057196774
54	0xbd1b0aeb	-0.03785221
55	0xbc7f75fe	-0.015592096
56	0xbd6ad1e6	-0.05732908
57	0x3d9f7e66	0.077877805
58	0xbd74e0bf	-0.059784647
59	0xbca56deb	-0.020194015
60	0xb9bb7455	-0.00035754094
61	0xbab459cf	-0.0013759675
62	0x3db39643	0.087688945
63	0x3db0ce93	0.08633151
64	0xbd5ebf53	-0.05438168
65	0x3d97657a	0.07392402
66	0xbb79be53	-0.0038107827
67	0x3cdb5598	0.026774213
68	0x3d3c2952	0.045937844
69	0x3d057d3b	0.032590132
70	0xbda0af65	-0.07845954
71	0xbc97231c	-0.018449359
72	0xbd90a0c5	-0.07061914
73	0xbdb36701	-0.08759881
74	0x3d066f15	0.03282078
75	0x3d45977c	0.04824017
76	0xbd776176	-0.06039568
77	0x3d991655	0.074749626
78	0x3cd9c4e6	0.026583146
79	0x3cbde2d3	0.023179447
80	0x3d566952	0.052346535
81	0xbbfa95e8	-0.0076472647
82	0x3d822511	0.06354726
83	0xbcc5a420	-0.024126112
84	0x3d1c0473	0.03809018
85	0xbd82f3ae	-0.063941345
86	0x3d9dddeb	0.07708343
87	0x3d261eab	0.04055659
88	0xbd87ba31	-0.0662731
89	0x3d0829b7	0.033242907
90	0xbc9b0ec6	-0.018927943
91	0x3d8755da	0.06608172
92	0x3d7a704b	0.061142247
93	0xbd1a8679	-0.0377259
94	0xbc22b717	-0.009931347
95	0x3d329f49	0.043608937
96	0xbd78aec2	-0.060713537
97	0x3ce4b15e	0.027916607
98	0x3d985593	0.07438197
99	0x3c967a8e	0.018368986
100	0x3d99da39	0.07512326
101	0x3d94fbe4	0.07274607
102	0x3d6fefc8	0.058578283
103	0xbcb0b5b3	-0.021571016
104	0xbccb4a89	-0.024815815
105	0x3d6b6eb4	0.05747862
106	0x3c97774c	0.018489502
107	0xbd9c01bf	-0.076175205
108	0x3d3d7843	0.04625727
109	0x3cc396e3	0.02387566
110	0xbd20d5d3	-0.03926642
111	0xbd3db36e	-0.046313696
112	0xbd6aea40	-0.057352304
113	0x3d5c33a7	0.053760197
114	0x3d371b23	0.044703614
115	0xbd2aee87	-0.041731384
116	0x393341f2	0.00017095337
117	0xbda69b13	-0.08135047
118	0xbd79393f	-0.06084561
119	0x3db22ab4	0.08699551
120	0xbd10ccef	-0.03535169
121	0xbd9824e0	-0.07428908
122	0xbc289ca8	-0.010291256
123	0xbd94cb0f	-0.07265293
124	0x3d34d156	0.04414495
125	0x3d12000c	0.035644576
126	0x3d9f33a4	0.077735215
127	0xbd50605a	-0.050873138
128	0x3d206fae	0.039169006
129	0x3cd53cd7	0.026029987
130	0x3db2864a	0.0871702
131	0x3d8022e2	0.06256653
132	0x3d656565	0.0560049
133	0xbcc34918	-0.023838565
134	0xbd8be4ff	-0.06830787
135	0x3bbfcfb1	0.005853616
136	0x3c8567f9	0.01628493
137	0x3d74f72b	0.05980603
138	0xbd4d3d96	-0.05010756
139	0x3c88f977	0.016720517
140	0xbcf9fea1	-0.030516924
141	0x3d72f35c	0.059314117
142	0x3c802c0a	0.015646
143	0x3c4eba65	0.012617682
144	0xbcf08646	-0.029360902
145	0x3d7d5f5b	0.061858516
146	0xbd3f5647	-0.04671314
147	0x3d2de22d	0.042452026
148	0x3d26187c	0.040550694
149	0xbd35f46c	-0.044422552
150	0x3d30e1b1	0.043183986
151	0x3c8249f0	0.015904397
152	0x3cf3054e	0.029665615
153	0x3d8853d8	0.06656617
154	0x3db45bba	0.08806558
155	0xbd5ca85f	-0.05387151
156	0x3d1375bc	0.036000952
157	0xbd912203	-0.07086565
158	0x3cc3ed4b	0.023916861
159	0xbd80f416	-0.06296556
160	0x3d208255	0.039186794
161	0x3d45f880	0.04833269
162	0xbda821fb	-0.08209606
163	0xba863d2e	-0.0010241622
164	0xbd6951a8	-0.05696264
165	0xbda01449	-0.07816369
166	0x3d157708	0.03649047
167	0xbcb0b607	-0.021571172
168	0xbd3d11ca	-0.046159543
169	0x3d8097c3	0.06278946
170	0xba63902b	-0.00086808455
171	0xbdb0f62f	-0.08640706
172	0xbd843d30	-0.06456983
173	0xbcad8170	-0.021179885
174	0x3d3a8d3c	0.045544848
175	0x3c1f3385	0.009716873
176	0x3abcdef6	0.0014409709
177	0xbd9c1069	-0.076203175
178	0x3c6120eb	0.013740758
179	0x3d9208b8	0.07130569
180	0x3cf2759c	0.029597096
181	0xbbdbce33	-0.0067079305
182	0xbd89a0ce	-0.06720124
183	0xbd8227b9	-0.06355233
184	0x3d24462e	0.04010599
185	0xbd5a3437	-0.053272452
186	0xbd9d92b9	-0.07694001
187	0xbb021754	-0.001985033
188	0x3d9a1703	0.075239204
189	0x3db4c65a	0.08826895
190	0x3d8f870c	0.0700818
191	0xbd80f0ee	-0.06295954
192	0x3d008f88	0.031386882
193	0x3d99880a	0.074966505
194	0xbcddc6fe	-0.027072426
195	0x3ca44993	0.020054614
196	0xbd8efe55	-0.06982104
197	0xbd37287c	-0.044716343
198	0xbd37edd3	-0.04490454
199	0x3d1263a7	0.035739567
200	0xbc24f517	-0.0100682
201	0x3dab8cc9	0.08376462
202	0x3a06b06a	0.0005137982
203	0xbce5b2aa	-0.028039295
204	0x3c238869	0.009981253
205	0xbd5d84cd	-0.054081727
206	0x3ca203de	0.019777235
207	0xbd187c74	-0.037228063
208	0xbd9393c7	-0.07205921
209	0xbdade38d	-0.084906675
210	0xbd9c2b9f	-0.076255076
211	0xbc9593ce	-0.018258955
212	0x3cf513f8	0.029916748
213	0xbd8f9e29	-0.070125885
214	0x3cc74074	0.024322726
215	0xbd6c7c83	-0.05773593
216	0xbd908510	-0.0705663
217	0xbd2c1efa	-0.04202173
218	0x3cb44220	0.022004187
219	0x3d2fa4c3	0.04288174
220	0xbd3b40cf	-0.045716103
221	0x3d29ec68	0.04148522
222	0x3d9299b6	0.07158224
223	0xbd734e58	-0.059400886
224	0x3cce2197	0.025162501
225	0x3cbb49bd	0.02286231
226	0x3d0de8dd	0.034645904
227	0x3d15dd36	0.036587916
228	0x3cecf646	0.028926026
229	0xbb9b4975	-0.0047389814
230	0x3d7d992f	0.061913665
231	0x3daa9bf8	0.0833053
232	0x3da916d5	0.08256308
233	0xbbc1e6d7	-0.005917411
234	0xbd8e4f6f	-0.069487445
235	0xbcc183b7	-0.023622377
236	0x3d8b4921	0.068010576
237	0x3ce3e28a	0.027817983
238	0x3cf4cf61	0.029884042
239	0xbb5821ad	-0.0032979057
240	0xbd838b84	-0.06423095
241	0x3d8d3f02	0.068967834
242	0x3d68353a	0.056691386
243	0xbd8c778e	-0.06858741
244	0x3d0b66d6	0.03403362
245	0xb9af1998	-0.0003339767
246	0xbc665714	-0.014058847
247	0x3c8a762b	0.01690205
248	0x3d082897	0.033241834
249	0xbda636c9	-0.08115918
250	0x3d81ce5d	0.06338189
251	0x3d957bcb	0.07299002
252	0xbd4f2a1d	-0.05057727
253	0xbca477b5	-0.020076612
254	0x3cfa5719	0.03055911
255	0xbc107031	-0.008815811

bn2.weight f4 [256]
0	0x3f800541	1.0001603
1	0x3f7ffca3	0.9999487
2	0x3f7feb63	0.99968547
3	0x3f7feb6f	0.9996862
4	0x3f7feb38	0.9996829
5	0x3f7fe633	0.9996063
6	0x3f7fde59	0.9994865
7	0x3f7fee7d	0.9997328
8	0x3f7f00ce	0.996106
9	0x3f8000a8	1.00002
10	0x3f7fe127	0.9995293
11	0x3f7ff8f0	0.99989223
12	0x3f7fdfe9	0.99951035
13	0x3f7fbbae	0.9989575
14	0x3f7fc46d	0.99909097
15	0x3f7faaf7	0.99870247
16	0x3f7ff8e5	0.9998916
17	0x3f7fcd15	0.99922305
18	0x3f7fee15	0.9997266
19	0x3f7fdc50	0.99945545
20	0x3f7ff634	0.9998505
21	0x3f7fdfca	0.9995085
22	0x3f7fb3ef	0.9988393
23	0x3f7fd9cb	0.999417
24	0x3f7fc9c0	0.9991722
25	0x3f7fff00	0.99998474
26	0x3f7f7ebd	0.9980276
27	0x3f7fcf34	0.9992554
28	0x3f7fe204	0.9995425
29	0x3f7fc7ec	0.9991443
30	0x3f800179	1.000045
31	0x3f7fea7f	0.9996719
32	0x3f7febf7	0.9996943
33	0x3f7fc954	0.9991658
34	0x3f7ff016	0.9997572
35	0x3f7fc3cf	0.99908155
36	0x3f7fe6d1	0.9996157
37	0x3f7ff05f	0.9997615
38	0x3f7f959c	0.9983766
39	0x3f7ff390	0.9998102
40	0x3f7fe8ad	0.9996441
41	0x3f800372	1.0001051
42	0x3f7fde0d	0.999482
43	0x3f7fe42b	0.9995753
44	0x3f7f5040	0.99731827
45	0x3f7fc983	0.9991686
46	0x3f7fb15f	0.9988002
47	0x3f7ff2ab	0.99979657
48	0x3f7fcbff	0.9992065
49	0x3f7fb506	0.99885595
50	0x3f7f777c	0.99791694
51	0x3f7fe002	0.99951184
52	0x3f7fc856	0.99915063
53	0x3f80013a	1.0000374
54	0x3f7f3fb2	0.99706566
55	0x3f7fa639	0.9986301
56	0x3f7f2b97	0.9967589
57	0x3f7fdf99	0.9995056
58	0x3f7fbea3	0.99900264
59	0x3f800bd1	1.0003606
60	0x3f7fea61	0.9996701
61	0x3f7f9f50	0.99852467
62	0x3f7feff3	0.9997551
63	0x3f7fbdef	0.9989919
64	0x3f7fd840	0.99939346
65	0x3f7fb705	0.9988864
66	0x3f7ff4ae	0.99982727
67	0x3f7fddb2	0.99947655
68	0x3f80026d	1.000074
69	0x3f7fee01	0.9997254
70	0x3f7fb1a4	0.99880433
71	0x3f7fd4b7	0.9993395
72	0x3f7ff01b	0.99975747
73	0x3f800198	1.0000486
74	0x3f7ffa34	0.99991155
75	0x3f7fc419	0.99908596
76	0x3f7feb44	0.9996836
77	0x3f7f779e	0.99791896
78	0x3f7fb5de	0.9988688
79	0x3f7f9dc4	0.99850106
80	0x3f7f22ee	0.99662673
81	0x3f7fa98d	0.9986809
82	0x3f7feecf	0.9997377
83	0x3f7f4334	0.9971192
84	0x3f7ff200	0.9997864
85	0x3f7fec0b	0.9996955
86	0x3f7fdc53	0.99945563
87	0x3f7fccab	0.99921674
88	0x3f7fe209	0.9995428
89	0x3f7fd501	0.99934393
90	0x3f7ff405	0.9998172
91	0x3f7faed4	0.9987614
92	0x3f7fedf2	0.9997245
93	0x3f7ff561	0.99983793
94	0x3f7f8a13	0.9982006
95	0x3f800377	1.0001057
96	0x3f7fcfec	0.9992664
97	0x3f7f57bc	0.9974325
98	0x3f7f6044	0.99756265
99	0x3f7fec49	0.9996992
100	0x3f7f7b00	0.9979706
101	0x3f7fc511	0.99910074
102	0x3f7fdaeb	0.9994342
103	0x3f7fe869	0.99964005
104	0x3f7fbfd9	0.9990211
105	0x3f7fc13d	0.99904233
106	0x3f7ff0f5	0.99977046
107	0x3f7fb77f	0.9988937
108	0x3f800084	1.0000157
109	0x3f7fec0d	0.9996956
110	0x3f7fd1cd	0.99929506
111	0x3f7fd0b1	0.9992781
112	0x3f7fff37	0.999988
113	0x3f7ff1ae	0.9997815
114	0x3f7feeee	0.9997395
115	0x3f7fcbdd	0.99920446
116	0x3f7ff1b1	0.99978167
117	0x3f7feeea	0.9997393
118	0x3f7f3940	0.9969673
119	0x3f7fa9fe	0.9986876
120	0x3f7fdc17	0.99945205
121	0x3f7ff602	0.99984753
122	0x3f7f3f0e	0.9970559
123	0x3f7fe974	0.99965596
124	0x3f7fda08	0.99942064
125	0x3f7f8bb1	0.9982253
126	0x3f7ffdcc	0.9999664
127	0x3f800178	1.0000448
128	0x3f7fb3da	0.99883807
129	0x3f7fdfaf	0.9995069
130	0x3f7fb958	0.9989219
131	0x3f7f6667	0.9976563
132	0x3f7fcb44	0.99919534
133	0x3f8004a9	1.0001422
134	0x3f7fa640	0.9986305
135	0x3f7fe620	0.9996052
136	0x3f7fe8b4	0.9996445
137	0x3f7f9ec1	0.99851614
138	0x3f7f8a9f	0.99820894
139	0x3f7fe2b2	0.99955285
140	0x3f7fe585	0.99959594
141	0x3f8004c1	1.0001451
142	0x3f7fd239	0.9993015
143	0x3f7fc07a	0.9990307
144	0x3f7fc177	0.9990458
145	0x3f7fe778	0.9996257
146	0x3f7f76c5	0.997906
147	0x3f7fd8af	0.9994001
148	0x3f7fb901	0.9989167
149	0x3f7fc40e	0.9990853
150	0x3f7fdc85	0.9994586
151	0x3f7f5686	0.997414
152	0x3f800bf0	1.0003643
153	0x3f7f3886	0.9969562
154	0x3f7ff9cd	0.9999054
155	0x3f800660	1.0001945
156	0x3f7f95c6	0.9983791
157	0x3f7fe460	0.9995785
158	0x3f7fdc3a	0.99945414
159	0x3f7fe09d	0.9995211
160	0x3f7f9c33	0.99847716
161	0x3f7ffdb0	0.9999647
162	0x3f7fa6c4	0.9986384
163	0x3f7fc296	0.9990629
164	0x3f7f8ce7	0.99824375
165	0x3f7fd3ef	0.9993276
166	0x3f7f9f7c	0.9985273
167	0x3f7fd05c	0.99927306
168	0x3f7fb0db	0.99879235
169	0x3f7fee4f	0.99973005
170	0x3f7fda47	0.9994244
171	0x3f7fb3a5	0.9988349
172	0x3f7fe88a	0.999642
173	0x3f80010b	1.0000318
174	0x3f7ff636	0.99985063
175	0x3f7fa56b	0.9986178
176	0x3f8003a4	1.0001111
177	0x3f7fe406	0.9995731
178	0x3f7f9018	0.99829245
179	0x3f7ff5ad	0.99984246
180	0x3f7fe11a	0.9995285
181	0x3f800203	1.0000614
182	0x3f8002e7	1.0000886
183	0x3f7fe9f3	0.99966353
184	0x3f7fad07	0.99873394
185	0x3f7fc403	0.99908465
186	0x3f7fbf17	0.99900955
187	0x3f7fd0c4	0.99927926
188	0x3f7fe694	0.9996121
189	0x3f7fc6f1	0.99912935
190	0x3f7ff82f	0.99988073
191	0x3f7fdefa	0.9994961
192	0x3f7f6dc9	0.99776894
193	0x3f7fef08	0.9997411
194	0x3f7fd639	0.9993625
195	0x3f7fcf90	0.9992609
196	0x3f80030c	1.000093
197	0x3f7fd355	0.9993184
198	0x3f7f8a66	0.99820554
199	0x3f800af1	1.0003339
200	0x3f7ffe2f	0.9999723
201	0x3f7fe012	0.9995128
202	0x3f7fd38c	0.9993217
203	0x3f7fcc29	0.999209
204	0x3f7fe002	0.99951184
205	0x3f8005fa	1.0001824
206	0x3f7f52f5	0.9973596
207	0x3f7fe6e9	0.99961716
208	0x3f7fdcfb	0.99946564
209	0x3f7fbfb0	0.99901867
210	0x3f802339	1.0010749
211	0x3f7fa3b3	0.9985916
212	0x3f7ff443	0.9998209
213	0x3f80003e	1.0000074
214	0x3f7fc672	0.9991218
215	0x3f7fc48b	0.99909276
216	0x3f7ff164	0.9997771
217	0x3f7f893c	0.9981878
218	0x3f7fa7d1	0.9986544
219	0x3f7fdc0c	0.9994514
220	0x3f7fba91	0.9989405
221	0x3f7fdb15	0.9994367
222	0x3f7fc972	0.99916756
223	0x3f7fe45c	0.99957824
224	0x3f7fe0d6	0.9995245
225	0x3f7fc304	0.99906945
226	0x3f7fea48	0.9996686
227	0x3f7fab86	0.998711
228	0x3f7fe904	0.9996493
229	0x3f7fcc5c	0.999212
230	0x3f7fc2cc	0.9990661
231	0x3f7fca3e	0.9991797
232	0x3f7fec5f	0.9997005
233	0x3f7fd0e0	0.9992809
234	0x3f7fbec5	0.99900466
235	0x3f8000f0	1.0000286
236	0x3f7fd87c	0.99939704
237	0x3f7f885c	0.9981744
238	0x3f7fe9f5	0.99966365
239	0x3f7fe929	0.9996515
240	0x3f7f58bc	0.9974477
241	0x3f7fd962	0.99941075
242	0x3f801128	1.0005236
243	0x3f7fa75b	0.9986474
244	0x3f80057c	1.0001674
245	0x3f7ff340	0.99980545
246	0x3f7fdc89	0.99945885
247	0x3f7f6c5c	0.9977472
248	0x3f7fcd4d	0.9992264
249	0x3f7f8791	0.9981623
250	0x3f7fe574	0.9995949
251	0x3f7f896d	0.9981907
252	0x3f7fe4bf	0.99958414
253	0x3f7fd1ba	0.9992939
254	0x3f7fa31c	0.9985826
255	0x3f7fa320	0.99858284
