prediction/best_heart_disease_model.pth (torch, 13682 bytes, 5 tensors)

fc1.weight f4 [64, 8]
00000000: 01ef 9c3e d735 9b3d 660e 7c3e 883d e3bd
00000010: f479 90be c574 853e 5503 2cbd 2173 9f3e
00000020: ca29 923d 577f abbd e2a1 9cbd 0865 b23e
00000030: eca9 a5bd e623 2cbe 4e39 3c3e 7d39 743e
00000040: d0a3 cabc b296 25be 3da8 acbe e10f 92be
00000050: c3ac 96be 8349 49be c0f9 b2bb cc16 81bd
00000060: cbeb 0cbe 474e 3bbe 0c3d 7fbe f5c3 1f3c
00000070: da9a aebd 33af 5abe 0ec7 ad3e 29bf be3e
00000080: 08e3 92bc c774 fabd 4fd1 bc3e e5b7 963e
00000090: 21a0 d3bd 40d8 19be 1e16 99be c7c3 3bbe
000000a0: 3c75 203f e159 adbe f323 fcbe 8aa6 e2be
000000b0: 27e6 08bd fe53 1c3d 406b 6cbd e3a8 0fbf
000000c0: 8948 e3be 7867 ddbc 3b1a 463e 87cd 983d
000000d0: 36c9 763d 1d2d 9bbd 840d 0b3e 939c bdbd
000000e0: 8b93 f3be e617 cfbe 29bd e3be c5f4 24bd
000000f0: 0848 0a3e 9ba5 db3e 7755 c0be 9bb7 e3be
00000100: e9f2 ab3e daf2 19bb 8564 debd d0be 8cbe
00000110: 7e79 a73e 116a acbe f5ed 723e 2562 953e
00000120: 3532 32bf 5024 43bd fb6b 0ebf e6f2 77be
00000130: c32b bc3e 50bb 7c3c 4d90 cdbe 2b3b 0c3e
00000140: 4149 f13d 95a8 9d3d 6a94 09be 4534 93be
00000150: 0f83 9cbe 3fe8 253d 3941 29be 17c1 713e
00000160: 1496 703e e512 0dbe 31e3 1abe 5a89 8d3e
00000170: ea21 1b3e 5870 28bd f542 1c3e 9b6e 21be
00000180: 50bc 16be 5a45 723e d1e4 a73e 0864 eebd
00000190: 5a8c b2be 4ba1 28be d1ee 5b3e 377b a8bd
000001a0: f53f 8c3e b0ad bfbe 4364 eb3c 0fba 79be
000001b0: 8ab9 c03e d756 b53e 4ac8 a6be 1e9f 173e
000001c0: 5636 80be 964b 7d3d 03ab 223e 8f08 16be
000001d0: 924d aebe 4f86 833e 995d 103d 3a28 b7be
000001e0: e39f a53e a7e8 043f 94bd 08bf ac30 02bf
000001f0: 6555 06bf 26a1 79bb 6c2b 8fbe 1cb1 07bf
00000200: c4dc 0cbf 1dc2 d1bd 779a 103c 2165 a43e
00000210: 5ba5 2fbe ebbc 633e 053f 15bc c6eb 973e
00000220: 6625 ca3e ad80 5b3d 3cf3 383d 46e9 473e
00000230: f36d a0be 0540 e83c a7df 64be e980 843e
00000240: 99b2 c53d 2be1 d63e 855d abbe b579 c63e
00000250: 7f8a 2ebe 1dcb 493e bdd4 9fbd d7c0 8d3d
00000260: efa8 a33e 4222 323d eb76 053e a5cf 23be
00000270: c2a9 bc3e 1b09 c13d a1b9 83bd e2a1 9dbe
00000280: 6e09 833e e17c 67bb e823 e0bb d1a8 6f3e
00000290: f767 283e 6129 17be a0dd b13d 2cdd f03d
000002a0: e778 083e 1d9d 973e cffe 8b3e 864f c0bc
000002b0: 9503 1bbc 7166 0abe a93a 98be 22b2 39be
000002c0: 68e4 80bd 0cda 32be 614b 51bc 83ab fb3d
000002d0: c566 883d 15dd e63d c009 c23d f816 1ebe
000002e0: 235f b1bd a4b5 623e 699b bfbd bbd9 bf3d
000002f0: 1e96 b73d 8479 32bd e11d f5bd 9ac0 9a3e
00000300: 2e0b 2a3e 2dfd 6a3e 1f98 aebe 8313 753e
00000310: 5590 6fbe 56d1 03bd 90c4 263e 9f2d 9dbd
00000320: 0417 d9bc c8d1 cfbe 5deb 9cbb 61a2 55be
00000330: 4ae5 8d3d 33ca 973e 0e55 043e 6f99 613e
00000340: 39a4 d8bd 3afe 613e dfd8 1c3e be22 83be
00000350: 76d4 f1bd 9eaf 86be e232 c9bc 1980 843e
00000360: 4bd5 babe 3870 613e 7807 82be 2062 1a3d
00000370: d28f 863e b55a bbbc 519c 1cbd c279 51be
00000380: e7e8 0cbf bb6b 69be 4950 023f 1683 2ebe
00000390: 47fd efbe 1fe7 5cbe bff4 12bf dac6 e83d
000003a0: ecc6 09bf 1644 003f 227b 153b 30a1 e6be
000003b0: 91a0 88be 0bc4 8fbd fd11 423e f5bd 8fbd
000003c0: cc9c 773e 0fed b13e 2a97 ccbe 59a5 c1bd
000003d0: 437f 84be 0354 9d3c 27a2 f9bd 6b00 323e
000003e0: 5946 30bf 19a1 24bf 0029 823e 58c0 6f3e
000003f0: 066c b53e 8f19 593e e4c3 883d ac71 b5be
0.30651096 0.075786285 0.24614868 -0.110957205 -0.28218043 0.2606565 -0.041995365 0.31142524
0.07136877 -0.083738975 -0.07648064 0.34842706 -0.08089051 -0.16810569 0.18381235 0.23850055
-0.024736315 -0.16170767 -0.33722106 -0.2852774 -0.29428682 -0.19656949 -0.0054619014 -0.06303176
-0.13761823 -0.18291579 -0.24925631 0.00975131 -0.08525629 -0.21355896 0.3394093 0.3725522
-0.017930523 -0.12229305 0.3687844 0.29437175 -0.103332765 -0.15023899 -0.29899687 -0.18336402
0.62678885 -0.33857635 -0.49246177 -0.44267684 -0.033422615 0.03816604 -0.05771947 -0.56117076
-0.44391277 -0.027026877 0.19345944 0.07461076 0.060250483 -0.07576964 0.13579375 -0.0925838
-0.47573504 -0.4044792 -0.44480255 -0.040272493 0.1350404 0.42899784 -0.37565205 -0.44476017
0.33583763 -0.0023490698 -0.10859016 -0.27489328 0.3270988 -0.33674672 0.23723586 0.2917644
-0.6960786 -0.047642052 -0.55633515 -0.24213752 0.36752138 0.015425518 -0.40149155 0.13694446
0.1178155 0.0769817 -0.13435522 -0.28750816 -0.3056874 0.04050469 -0.16528787 0.23608814
0.2349475 -0.13776739 -0.15125729 0.27643853 0.15149656 -0.041122764 0.15259917 -0.15764849
-0.14720273 0.23659268 0.3279176 -0.11640173 -0.34872705 -0.16467778 0.2147782 -0.08226626
0.27392545 -0.374372 0.028734332 -0.24387382 0.37641555 0.35417816 -0.32574683 0.14806792
-0.25041455 0.061839662 0.15885548 -0.14651702 -0.34043556 0.25688407 0.03524551 -0.35772878
0.32348546 0.519175 -0.53414273 -0.5085552 -0.5247405 -0.0038090437 -0.27962816 -0.5300462
-0.5502436 -0.10242102 0.00882589 0.32108405 -0.17152922 0.22240035 -0.009109263 0.29672068
0.39481658 0.05358951 0.04515384 0.1952258 -0.31333885 0.02835084 -0.22350942 0.258796
0.096532054 0.41968665 -0.33469787 0.3876473 -0.1704502 0.19706388 -0.078042485 0.06921547
0.31964824 0.043489702 0.13033645 -0.15997179 0.36848265 0.09425565 -0.0643189 -0.3078757
0.25593132 -0.0035322236 -0.006840218 0.23404242 0.1644591 -0.14761879 0.0868485 0.11760935
0.1332737 0.29612055 0.2734284 -0.02347542 -0.009461303 -0.13515641 -0.29732254 -0.18134359
-0.06293565 -0.17465991 -0.012774319 0.12288573 0.06660227 0.11272637 0.09474516 -0.1543845
-0.08660724 0.22139603 -0.09355814 0.09367701 0.089641795 -0.043572918 -0.119685896 0.30225068
0.16605827 0.22948141 -0.34100434 0.23933224 -0.23394902 -0.03218206 0.1628592 -0.07674717
-0.026500233 -0.40589738 -0.0047887997 -0.20862724 0.06928499 0.29646453 0.12923071 0.22031187
-0.10578198 0.22069636 0.15317105 -0.25612444 -0.11808102 -0.2630586 -0.024560396 0.2587898
-0.36490855 0.22015464 -0.25396323 0.037691236 0.262816 -0.0228704 -0.038235012 -0.20456603
-0.5504288 -0.22795002 0.50903755 -0.17042193 -0.46872923 -0.2157254 -0.574047 0.11366053
-0.53819156 0.5010389 0.0022808989 -0.4504485 -0.26685002 -0.07019814 0.18952174 -0.07018653
0.24180907 0.34751174 -0.3995908 -0.09455366 -0.25878343 0.019205099 -0.12189131 0.17382972
-0.6885734 -0.64308316 0.25421906 0.23413217 0.35433978 0.21201156 0.06677988 -0.35438287

fc1.bias f4 [64]
00000000: 42b8 8b3e ea47 77bc 931c 08be d51f 24be
00000010: f857 953c 5b07 d5bd 24f7 303e a673 f4bd
00000020: 7185 873e 85b8 233e 92e6 b5bc c96e be3d
00000030: 2c93 eb3d 3c02 a5be 4dbe b6bb 4877 9bbe
00000040: 76f6 b4be 610d a8be 04b3 cfbe 157c 33be
00000050: 9525 19be e897 8d3e 338f 983e 7e9c d13d
00000060: 5711 8abd 7f68 d43c e3b6 c83e 5166 603c
00000070: 738e 373e 9d8a 26be a3d0 d53d e778 09be
00000080: 8bdf 3cbe 9698 6b3e 5160 f8be d77d bbbd
00000090: 9604 6d3e 1d25 1b3e 6cc4 113d 3fc3 6ebe
000000a0: f438 a3be af4a 35be bd92 2c3e dcbd e13d
000000b0: d81a b33e 8755 a33e f862 a1be 07d5 6b3e
000000c0: bdbd 81be b021 a33e d363 aabe f456 f63d
000000d0: 690d 42bd f352 6e3e e407 a4bd b22b c13d
000000e0: db85 96be 1a53 95be f244 af3d e9cc 593e
000000f0: 94b8 a13e 677d 9fbd cc06 56be aa45 a3bd
0.27289015 -0.015092829 -0.1329215 -0.16027768 0.018230423 -0.104017936 0.17281777 -0.11936121
0.26468995 0.15988357 -0.022204671 0.09298474 0.1150268 -0.32228267 -0.005576885 -0.30364442
-0.35344285 -0.32822707 -0.40566266 -0.17527802 -0.14955743 0.27654958 0.29796752 0.10234927
-0.067415886 0.025928734 0.39202031 0.013696269 0.17925434 -0.16263814 0.10440185 -0.13425027
-0.1844465 0.23007426 -0.48510984 -0.091548614 0.2314628 0.15150876 0.035587713 -0.23316668
-0.3187939 -0.17704271 0.16852851 0.11022541 0.34981418 0.3190119 -0.3152082 0.23030482
-0.2534007 0.3186164 -0.33279285 0.12028304 -0.04737607 0.2327383 -0.080093175 0.09432162
-0.29399 -0.29164964 0.08558072 0.21269573 0.31586134 -0.077875905 -0.2090103 -0.07972272

fc2.weight f4 [32, 64]
00000000: bdb2 0bbe 522d 9cbd 3a01 acbd 9fa1 37bd
00000010: ce69 a8bd d9f0 b83d 61a4 383b 60e6 bdbc
00000020: 1470 a7bd bf3b 9abb 0131 af3c 9f3f d9bb
00000030: b9b6 d7bd 807e aabb b0f6 a93c e18b 143c
00000040: 0039 30bd 4e7d fe3d 93d6 f0bd 7f16 403c
00000050: 9db1 1c3d 3e17 de3d 41d0 c43d a362 06be
00000060: b26b 0ab9 be24 efbd e644 8b3d 1308 063d
00000070: 4cdc 2cbd 3c46 60bd 4f99 51bd 636d 4a3d
00000080: 694e 893d 9b1a 173c 88ad db3c 7497 fdbd
00000090: f33a 433d 80a2 80bd 87db d6bb de56 22bd
000000a0: 986c 60bd 5e8e c13c f4d3 41bd 1053 b43d
000000b0: c9d9 c13d 08ca 6a3c ca83 a5bd d2f8 40bd
000000c0: bf6a 33bc 3b9c 8c3d 623b eebd c08b e0bd
000000d0: 6bb7 84bd e84e 29bd dcd3 173d 7156 bcbd
000000e0: ffd1 a13d ac2b c23d b47e a7bd 8fe1 1f3d
000000f0: ceb7 b53b 8fa5 fabb 77d7 90bc 8c3b 7a3c
00000100: 40d8 123c 1031 843d ba11 ff3d b048 5d3c
00000110: ae8f f4bd fe5a b13d d0d7 05bc fe00 adbd
00000120: ac55 9dbd 3886 4fbd 9009 73bd e8b6 8a3c
00000130: 188c acbc c07c 9b3c 6895 19bd 1608 d6bd
00000140: 38f1 abbd 1889 c2bc 88c3 98bc 08b1 e73d
00000150: 7edd 89bd 108a 553d ecae a6bd 7aba acbd
00000160: 768f 8a3d 1cf0 4ebd 24ad f4bd 8c84 a0bd
00000170: 7ecd a0bd d033 f33d b237 ebbd 5015 cb3d
00000180: 0081 9f3c 9cb2 cebd 6cfd 093d e02a 8b3b
00000190: 3a2b f03d 8c71 6f3d c0bd a4bb 84d5 11bd
000001a0: 68c3 cc3c 28a7 c63c d081 31bc 3efb a8bd
000001b0: 4a90 f1bd b003 613c bea7 953d b058 d63d
000001c0: 4463 07bd e8f8 a3bd c006 a1bc 3cf5 4dbd
000001d0: 644e c4bd 6c89 f4bd e02b a9bd fa4b c8bd
000001e0: 283e 343d a03c db3d 7040 cfbc da96 d9bd
000001f0: 6cea 433d 88ab 6bbd 02d7 fdbd c058 2f3c
00000200: f931 bbbd 14bb 753c 7883 a13d 8f13 3d3e
00000210: ec3e 863d 8d16 bf3e 8554 5d3e a622 c53e
00000220: fde8 18bd 994c 873e 4da1 babd 8b9a 273d
00000230: 1649 0e3d fd30 9a3e bd40 183e 1896 65be
00000240: 5a1c 23be e0d7 823d 6b4c 9f3d 652e 943d
00000250: 5db4 5a3d 6173 5abd c37c a73d db92 9bbb
00000260: c186 083d 9773 61ba 252a 3dbd c7e8 f73d
00000270: 4532 f03e 28a0 a63e 3222 2b3d 9407 a7be
00000280: ad2e 0fbd 96ae 393d 0bd1 0b3e a191 a53e
00000290: ee0f 013e 9516 7e3e 6a52 023e 4749 ea3c
000002a0: 4183 6e3e 4183 213c 2c3c 153e 58a6 b03d
000002b0: e401 b4bd 57b5 c33a 74a6 4c3d 53c1 8e3d
000002c0: 96bc de3d bf2a ef3d e875 993d 9865 923b
000002d0: c643 3ebd b028 aebc 60e4 f53d 1ae6 dd3d
000002e0: 6d54 653e aa84 fdbd 9978 183e 611b a13d
000002f0: 0893 cc3d 685a 113d c074 c13c e40d b63d
00000300: c1d9 aebd ea0f 223d fa46 ea3d 37a6 d03d
00000310: 1430 363e 3faf 0a3f dc64 4c3e 1e93 0e3f
00000320: 91c0 ee3d 4bd6 6b3e fd93 3c3b 8a32 2f3e
00000330: 6f0d 8dbc 7eb1 cd3e d12f 793e 8405 acbe
00000340: 90e3 2fbe fb5d 303e 6227 4f3e 3792 f33d
00000350: 0826 a7bd a83d adbd f00d 9d3d 0a33 053e
00000360: 8a30 fb3d 156a 223e b87b cb3c d66b 513e
00000370: ae3e 0f3f 6bb1 073f 2030 b0bd d938 a6be
00000380: 3d4c 1f3e a488 323e 7f9b 973e 7718 aa3e
00000390: 2f13 ad3a 34b1 af3e 6380 13bd 7bdc ca3d
000003a0: 11f5 153f 45a7 4abd e0f9 033e 48f2 bdbd
000003b0: 7536 b1bd 2ebb 4cbd c825 53bd 8393 8d3d
000003c0: 1403 623d effb 6e3e e261 d4bd 88f5 b93d
000003d0: 548c 7bbc e486 c6bd 7a1c da3d a2e7 b83d
000003e0: e17f ab3e 506e e7bd 7cf2 8cbd f780 923d
000003f0: 4b4e 9ebc 29c5 de3d 4fa4 e63d 439a d9bd
-0.13642402 -0.07625832 -0.083986714 -0.04483187 -0.08223306 0.09030313 0.002817415 -0.02318114
-0.08175674 -0.0047068293 0.021385672 -0.0066298987 -0.105328985 -0.0052030683 0.020747513 0.009066553
-0.04302311 0.12426244 -0.11759677 0.0117241135 0.038255323 0.10844277 0.09610034 -0.13123564
-0.00013200825 -0.1167693 0.06800251 0.032722544 -0.04220228 -0.05475448 -0.051171597 0.049420726
0.06704409 0.009222652 0.026816145 -0.12382403 0.04766364 -0.062809944 -0.0065569314 -0.039633624
-0.054791063 0.023627456 -0.047321275 0.088049054 0.09465367 0.014330395 -0.080817774 -0.047112294
-0.010950743 0.06865736 -0.1163242 -0.10964155 -0.06480297 -0.041335016 0.03706728 -0.09196175
0.07901382 0.09480986 -0.081784636 0.03903347 0.005545593 -0.0076491307 -0.017680867 0.015272986
0.008962691 0.064546704 0.12454553 0.0135061 -0.11941467 0.086599335 -0.0081691295 -0.08447455
-0.07682356 -0.05066511 -0.05933529 0.01693292 -0.021062896 0.018980384 -0.037496 -0.10450761
-0.08395618 -0.023747012 -0.018647924 0.11313063 -0.067316994 0.05213362 -0.081388324 -0.08434005
0.06765644 -0.050521955 -0.119470865 -0.07837781 -0.078516945 0.11875117 -0.114852324 0.099161744
0.019470692 -0.10092661 0.033688948 0.0042470545 0.11726995 0.058457896 -0.005027503 -0.035604015
0.02499552 0.024249628 -0.010834172 -0.08251046 -0.11795099 0.013733789 0.07307385 0.104661345
-0.03305365 -0.080064595 -0.019656539 -0.0502827 -0.09585264 -0.11940274 -0.082603216 -0.097801164
0.04400459 0.10704923 -0.02529928 -0.10624476 0.047830984 -0.05753663 -0.12394525 0.010702312
-0.09140391 0.014998216 0.07886404 0.18464492 0.0655497 0.37321892 0.21614273 0.38502997
-0.03733157 0.26425627 -0.09112797 0.040918868 0.03473767 0.301155 0.14868446 -0.22420537
-0.15928784 0.06388831 0.077782474 0.072354116 0.053394664 -0.05333269 0.08178093 -0.004747731
0.033331636 -0.0008600293 -0.04618277 0.12104946 0.46913353 0.32544065 0.041780658 -0.3262297
-0.034956623 0.045332514 0.13653962 0.3233767 0.12603733 0.24813302 0.12726751 0.028599394
0.23292257 0.0098579535 0.14573735 0.086254776 -0.08789423 0.0014931363 0.04996343 0.069704674
0.10875814 0.11678075 0.07493192 0.0044676773 -0.046451353 -0.021259636 0.1200645 0.10834904
0.22395487 -0.12378819 0.14889754 0.0786655 0.099889815 0.03548661 0.023615241 0.08889368
-0.08537627 0.039565958 0.11439319 0.10187953 0.17791778 0.54173654 0.1996035 0.55693233
0.11657823 0.23030965 0.0028774731 0.17109123 -0.01721832 0.40174478 0.24334647 -0.33597958
-0.17176652 0.1722335 0.20229867 0.11893123 -0.08161551 -0.084590256 0.07668674 0.13007751
0.122651175 0.1586078 0.024839267 0.20451292 0.55955017 0.53005093 -0.08602929 -0.32465246
0.15556426 0.17434937 0.29610822 0.3322179 0.001320457 0.34314883 -0.03601111 0.099053346
0.58577067 -0.049475927 0.12888288 -0.09274727 -0.08652965 -0.049983196 -0.051549703 0.06912901
0.055178717 0.23338293 -0.10370232 0.090800345 -0.015353281 -0.09693697 0.10649963 0.090285555
0.33496 -0.11300337 -0.06882188 0.07153504 -0.019324442 0.10877449 0.11261808 -0.10625126

fc2.bias f4 [32]
00000000: b78f 8abd 308e 0f3c 5da2 173e 5fe2 7abc
00000010: 054e 48bd 1134 abbd 14ed 973d be11 afbd
00000020: 6fe9 c03d e8bf 553d cd5d 953d 845f 453d
00000030: 4362 a53d 6907 623d f062 bcbd 147d b8bd
00000040: c1d4 d7bd f849 efbc 31df a3bd 96fd 773c
00000050: 66ea b23d 9117 cabd 3f7c 1dbd cda7 70bb
00000060: dd59 003d 7433 b73d 5a13 02be 0892 323d
00000070: fc08 4a3d 4b80 483c 098b e63c 32e5 73bd
-0.06765693 0.0087619275 0.1480803 -0.01531276 -0.04890253 -0.0835954 0.07418266 -0.08548306
0.09419524 0.05218497 0.07293282 0.048186794 0.080753826 0.055182848 -0.09198558 -0.09008232
-0.105386265 -0.029210076 -0.08001555 0.015136143 0.08736114 -0.09867776 -0.03844857 -0.003672111
0.0313357 0.08945361 -0.12702695 0.043596298 0.049324974 0.012237619 0.028142469 -0.05954475

fc3.weight f4 [1, 32]
00000000: f843 473d d216 c3bd de3d 6ebe 5856 06be
00000010: 573f 62be bb85 30be 205b 2fbe d182 0e3d
00000020: cd61 59be 4e7a 9b3d 2f14 3abe fad2 15be
00000030: 19ee 2ebe 8bcf c83d 40b1 7c3b ca73 1a3e
00000040: 5f7b 233e a00e 78be 3d69 76be e5f3 c63c
00000050: 359f 3abe 1fe5 d9bd f073 a43c cb42 75be
00000060: 300d 773c b36b e83d 30e3 283d 49e3 ccbd
00000070: aa8d f3bd b336 5d3c 4a27 15be 19b6 fb3d
0.048648804 -0.09525837 -0.23265788 -0.13118875 -0.22094475 -0.17238514 -0.17124605 0.034792725
-0.21228714 0.07591687 -0.18171762 -0.14631262 -0.17083015 0.09805211 0.0038557798 0.15083233
0.15965031 -0.24224329 -0.24063583 0.02428622 -0.18224795 -0.106394045 0.020074815 -0.23951261
0.015078828 0.11348667 0.041232288 -0.10004289 -0.11892255 0.013501811 -0.14565769 0.12290592
