prediction/heart_disease_model.pth (torch, 3968 bytes, 5 tensors)

fc1.weight f4 [16, 10]
000000 be 47 12 3e 8f b2 2d be 4c 1e 55 3d e7 86 4f 3e
       0.1428518 -0.16962646 0.052030846 0.20266305
000010 e1 1a 06 be 31 59 cc bc c1 9d bf 3d d2 3d 0c 3e
       -0.13096191 -0.024944874 0.09356261 0.13695458
000020 d4 1f ae 3d b1 bd 51 3e 61 3c 4a 3f ab 6a 39 bf
       0.085021645 0.20482518 0.7899838 -0.7242839
000030 24 2d d6 bf 9a dd d3 3e f1 55 5d 3f dc be 4b 3e
       -1.6732526 0.41380006 0.8645926 0.19897026
000040 03 43 b2 bf 01 2f 15 3d f7 86 09 bf d7 2b 4a 3f
       -1.39267 0.03642178 -0.53721565 0.78973144
000050 bb c8 81 3f 66 69 32 c0 4e fc 8c be 7c 47 a9 bf
       1.0139383 -2.787683 -0.27536243 -1.322494
000060 9d 61 43 bf 66 9d d6 bf 6d e1 f9 be f2 8b 66 3f
       -0.7632082 -1.6766784 -0.488048 0.9005729
000070 fc b8 92 be b8 e1 d4 bf fc e9 3d be ec 35 52 bf
       -0.28656757 -1.6631384 -0.18546289 -0.8211353
000080 fa 79 11 3f dc 68 10 3f 6c 2b a4 bf 31 54 f5 bf
       0.56826746 0.5641 -1.2825751 -1.9166318
000090 f2 46 4a bf 8d 8b b2 3e f7 fa 80 bf 4a 9b 0b bf
       -0.79014504 0.34872094 -1.0076588 -0.5453383
0000a0 18 d5 0d 40 34 0e b3 be a9 4b d9 3f e5 63 53 bd
       2.2161312 -0.34971774 1.6976215 -0.05160894
0000b0 7e 5d b9 bf 59 ba 0d bf dc 1d 2d 3f e5 78 d0 bd
       -1.4481657 -0.5536247 0.67623687 -0.10179309
0000c0 aa 00 27 be 5a 03 8f be 40 c9 0c 40 8a 40 4b 3e
       -0.16308847 -0.27932245 2.1997833 0.19848838
0000d0 66 a7 a9 be 29 86 07 40 5f a3 70 3d ee 64 f7 be
       -0.33135527 2.1175635 0.058749553 -0.4831919
0000e0 4c a7 ff 3e 33 fb 10 bf bc 4a 74 be ab e6 16 bf
       0.49932325 -0.566333 -0.23856634 -0.5894572
0000f0 1f e4 b7 be 7e 2a 3a 3f 75 3a 03 bf 04 c2 2b bf
       -0.3591623 0.7272109 -0.51261073 -0.6709292
000100 54 af b8 bf ff 1b 92 be 1c df 70 3f fa fc d5 be
       -1.4428506 -0.28536984 0.9409044 -0.41794568
000110 e4 e4 8c bf 27 dd 98 bf d7 2d ec 3e 77 07 bc bf
       -1.1007352 -1.194249 0.46128723 -1.4689778
000120 6b f3 7f bf b4 fd 87 3f 5f 97 75 3f 40 0c 37 3e
       -0.999808 1.0624299 0.959341 0.17875767
000130 7b 30 04 3f d8 97 c5 3f f4 56 97 bf fa 46 55 be
       0.51636475 1.5436964 -1.1823411 -0.20827857
000140 7d 6f 7c be 0d b5 24 c0 70 22 f7 3e 0a 19 2b 3f
       -0.24651904 -2.5735505 0.4826846 0.6683508
000150 24 9e 8c 3f e1 8c a8 3f f1 a8 6d bf d2 d5 a1 be
       1.0985761 1.3167993 -0.9283591 -0.31608444
000160 53 50 23 bf 53 90 5c 3f 81 1d d3 3f b8 48 d6 3d
       -0.6379444 0.8615772 1.6493379 0.10463089
000170 fd 5d 00 3f 8c 90 b2 be cb ac 87 be da 28 42 3f
       0.50143415 -0.34875906 -0.26499018 0.75843585
000180 46 21 e8 be fd d3 87 bf 03 8c a9 3f e0 f7 97 bf
       -0.45337886 -1.0611569 1.3245853 -1.187252
000190 13 13 14 bf ea 7b c9 3e 8f 06 32 3f 2c a0 db 3f
       -0.57841605 0.3935235 0.6954126 1.7158256
0001a0 7d d2 e3 bf fa 23 81 bf 68 d3 0b 3f e3 91 f3 3f
       -1.7798611 -1.0089104 0.54619455 1.9028896
0001b0 34 25 d0 3e 96 bd 67 3e 95 98 d0 3e 30 f5 83 bf
       0.40653384 0.22630915 0.4074141 -1.03092
0001c0 86 fa 4c bf ee fe 98 3e ef e7 8e 3f 99 b3 98 3f
       -0.8006977 0.29881996 1.116453 1.1929809
0001d0 2f df 27 3e b0 d9 a1 3f 7e bd 96 3f 23 a8 9f bd
       0.16393732 1.2644558 1.1776578 -0.077957414
0001e0 e7 1d f8 bd 01 4e 6c bf ff 16 c0 3d 7a d6 1f bf
       -0.121150784 -0.92306525 0.09379386 -0.6243664
0001f0 bf e4 11 3f df e3 4c bf 9a 8b 06 bf 3c 56 0b c0
       0.56989664 -0.80035204 -0.52556765 -2.1771383
000200 95 20 7b 3f f9 f1 b3 3e 62 f5 6b bf cf 62 ba 3e
       0.9809659 0.35145548 -0.921713 0.3640351
000210 6e e6 ac 3f 01 9d 9c bf 9a 33 a5 be cc 91 f8 bf
       1.3507822 -1.2235414 -0.3226593 -1.9419494
000220 1c d8 a1 be c1 be b5 be f1 c3 94 bd 93 e9 e0 3e
       -0.3161019 -0.35497096 -0.07263935 0.43928203
000230 2a 54 93 3f 86 ef 54 be d1 4f 98 bf 56 02 3b bf
       1.151006 -0.20794496 -1.1899358 -0.7305044
000240 e7 f8 22 bd e3 16 3d bf 1a a2 4d 3e c1 7f db 3f
       -0.039788153 -0.7386305 0.20081368 1.7148362
000250 21 8c c8 3f 2f 5d 4f 3e 62 d5 80 3f 17 7e eb bf
       1.5667764 0.2025039 1.0065119 -1.8397855
000260 25 53 82 3f 16 8e 00 3f dd 48 a0 3e a0 64 ad 3f
       1.0181624 0.50216806 0.3130559 1.3546333
000270 18 2f 8f 3f d9 73 c8 3f 3b 19 99 3f 49 01 81 bf
       1.1186247 1.5660354 1.1960825 -1.0078517

fc1.bias f4 [16]
000000 9c 14 9a bf 58 fa e4 bf 29 8b 93 bf 64 79 80 c0
       -1.203754 -1.7888899 -1.1526843 -4.014818
000010 29 17 b1 bf 93 66 48 c0 e4 f7 d7 bf 31 eb 2e c0
       -1.3835193 -3.1312606 -1.6872525 -2.733105
000020 bf 8a 18 c0 5e 24 27 c0 15 88 52 c0 2f a9 1a c0
       -2.3834684 -2.6115947 -3.2895558 -2.4165761
000030 33 ef 2f c0 ef d5 66 c0 37 ec d7 bf 4c 4e 0c c0
       -2.7489746 -3.6068075 -1.6868962 -2.1922789

fc2.weight f4 [8, 16]
000000 69 45 96 bd a3 ca 63 3f 48 fd 58 3d c9 f8 1e 40
       -0.07337458 0.88981074 0.052975923 2.4839346
000010 d7 20 29 3e 0d 00 17 c0 58 d8 9c bd 7f c2 2d 3f
       0.16516434 -2.359378 -0.07658452 0.678749
000020 e6 70 cf be 8c f2 38 3f cf b8 26 c0 a0 be c3 3e
       -0.40515822 0.722451 -2.6050298 0.38231373
000030 75 85 a6 3e b5 74 de be 2a 26 df 3d 71 b8 36 3f
       0.32523695 -0.43448415 0.10895951 0.71375185
000040 a9 00 92 be 3e 45 95 3d 96 9e fe be 9e c0 08 3f
       -0.2851613 0.072885975 -0.49730366 0.5341891
000050 a4 a7 6b be 07 9d 3c bf 62 3a 8d be 3b 2f 0b 3e
       -0.23013169 -0.73677105 -0.27583605 0.13592236
000060 74 02 90 be ae 11 ba be db 2b 76 bf cb b7 f7 be
       -0.28126872 -0.36341614 -0.9616067 -0.4838241
000070 a4 b6 e3 b9 44 a8 a1 bf 5d 41 af be 8a 3c 28 bf
       -0.00043432892 -1.2629476 -0.34229556 -0.65717375
000080 73 dd 60 be 14 3c 23 bf 26 eb 76 bf c0 17 13 bf
       -0.21959476 -0.63763547 -0.9645256 -0.57458115
000090 75 99 da be b6 17 df be 25 82 00 bd 85 ce 97 3e
       -0.42695203 -0.43572778 -0.031374115 0.2964975
0000a0 8a 2c 1c bf ee 40 ff 3d 26 1e 44 be a5 0e 4e be
       -0.6100546 0.12463556 -0.19152126 -0.20122774
0000b0 f7 f8 13 be 36 3c 65 bf df b8 18 3c 01 ec 0d bf
       -0.14450441 -0.89545 0.00932142 -0.5543824
0000c0 b6 9d 0f be 08 1a 4a be 81 22 47 be ef 20 09 bd
       -0.14025006 -0.19736493 -0.19446756 -0.033478674
0000d0 83 eb 84 be a3 a0 16 be 46 22 49 be 17 af c6 bd
       -0.2596093 -0.14709716 -0.1964198 -0.097013645
0000e0 f3 4c 1f be 75 64 b1 bd 88 d6 1d be 1d 9e 0e 3d
       -0.15556698 -0.08661739 -0.15413868 0.034818757
0000f0 d5 00 e7 ba 40 a5 9c bc 7e de bd bd e0 92 88 be
       -0.0017624149 -0.019121766 -0.09270953 -0.26674557
000100 a4 07 de bd 03 fb 0a bf 57 e5 9e be 6f f0 0b be
       -0.10841301 -0.54289263 -0.31034347 -0.13665937
000110 93 60 6a be 45 08 a9 be 57 66 d5 be 20 2a 85 ba
       -0.22888403 -0.33014122 -0.41679642 -0.0010159649
000120 b0 07 0b be ca 11 bb 3c 17 cc 4f be 39 93 16 be
       -0.13577151 0.02283563 -0.20292698 -0.14704598
000130 c2 49 61 be 75 e3 20 bf 23 96 b3 be a5 d0 fa be
       -0.22000793 -0.6284707 -0.35075483 -0.48987308
000140 aa a8 39 be b7 8e 8b be 50 7a a7 bd 35 0d 93 3d
       -0.18130746 -0.2725732 -0.08177626 0.071802534
000150 89 8f 13 be 3d 50 ed be 71 c2 49 bc 08 9a 7d be
       -0.14410223 -0.4635028 -0.012314425 -0.2476579
000160 81 c2 8e be 05 91 b4 bd 65 76 85 be 72 88 33 be
       -0.2788277 -0.08816723 -0.2606689 -0.17532519
000170 4a e0 b8 be 26 19 81 bc 88 9c 8a 3b ad f4 20 be
       -0.3610862 -0.015759062 0.0042300858 -0.15718336
000180 4b 7b b4 bd cf bc f3 be 22 20 5e bf 67 88 2d 3f
       -0.08812579 -0.47604987 -0.8676778 0.6778626
000190 ba a3 57 3e 5b 29 79 be 0c fa ce be 50 3d 95 3e
       0.2105855 -0.24332182 -0.40425146 0.2914834
0001a0 d1 f3 13 bf eb 6a 93 be cb 5e 99 bf 2f 8c 13 bf
       -0.5779391 -0.2879251 -1.1982054 -0.5763578
0001b0 31 a5 74 3e 47 17 8a be 60 72 39 bf d1 cd 2b be
       0.2389114 -0.26970884 -0.7244015 -0.16777731
0001c0 70 24 b2 3c 80 f6 65 3e e3 dd 12 c0 cc 6c c3 3e
       0.02174589 0.22457314 -2.294793 0.38168943
0001d0 9d f1 2e 3f e9 25 6d bf af 89 fb 3e 79 24 a5 3f
       0.6833742 -0.9263597 0.49128482 1.2901756
0001e0 96 ec ae bf 1e 6c 81 bf b7 e8 4b bf b2 21 75 bf
       -1.366595 -1.011112 -0.7965197 -0.9575454
0001f0 35 bb a0 3f 90 c5 0f c0 cc bd 6d 3f 3a af 15 c0
       1.2557131 -2.2464333 0.9286773 -2.33882

fc2.bias f4 [8]
000000 b4 0f e9 be 1b 62 87 bf 10 4c 4a bf be 58 c0 be
       -0.45519793 -1.0576814 -0.7902231 -0.37567705
000010 27 da da be d4 ec 1a bf cf ae 78 bf 85 85 67 3f
       -0.42744562 -0.6051762 -0.97141737 0.9043811

fc3.weight f4 [1, 8]
000000 b0 57 72 be a1 9c 05 3d 0f b4 44 3d 57 90 26 3e
       -0.23666263 0.032620076 0.04802328 0.16265999
000010 4c 3f 7e 3e 25 34 82 be 7e 74 11 3d 6c 8b 08 bf
       0.24828833 -0.25430408 0.035511486 -0.5333774
