model.pth (torch, 11840 bytes, 4 tensors)

weight f4 [96, 20]
-0.2559537 0.056729723 0.1167778 -0.09926786 0.08982756 -0.11564726 -0.06536208 -0.0008457952
0.023094434 -0.08783405 0.15766966 -0.02257065 -0.16295879 -0.44255346 -0.11197901 -0.09336816
-0.06474909 -0.075605385 -0.04721577 -0.24774244 0.06634736 -0.08322926 -0.08137284 0.07845971
-0.08031999 0.066993766 0.00020759895 -0.07754537 0.1694145 -0.2936354 -0.17371108 -0.10987605
0.16360581 0.03378499 -0.14501695 0.18722162 -0.010549147 0.066321716 0.19803876 0.1511629
-0.07135421 -0.107571006 0.18398124 -0.24733937 -0.27165723 -0.1595225 -0.042397324 -0.18615472
-0.053567242 -0.17859572 0.16011453 0.055735383 0.071771145 -0.02653746 -0.16897678 0.19906604
-0.16911764 0.04533681 0.2730786 -0.00968578 0.019445559 -0.23104954 -0.020624917 0.04210802
0.10180756 0.0049661747 -0.1872205 0.04489324 0.22010137 -0.21910687 -0.076977044 -0.18808922
0.010696559 0.18268526 -0.079642564 0.3279412 -0.08642999 0.22952724 -0.10469388 0.19535246
0.020257227 0.19208178 -0.08046898 0.0038251027 0.10901128 0.19876352 -0.06528851 0.051132597
0.18251236 -0.17566076 0.23797043 -0.1426864 -0.059929483 -0.044672318 0.15796782 0.0032447935
0.16834155 -0.0776355 -0.29386675 0.01627796 -0.0397417 0.0849939 -0.19313344 -0.050067857
-0.1039028 0.10521921 -0.15588182 -0.13564925 -0.1881114 0.00318119 0.06970158 0.06413628
-0.28973392 -0.27349898 -0.18971696 0.21029137 0.046602353 0.14184667 0.118046515 0.04742474
-0.007638387 0.17054205 0.03717043 0.02142418 -0.1237452 0.062325083 -0.23850347 -0.10788483
-0.43136564 -0.21395527 -0.15650657 -0.06278601 -0.056388177 0.20553358 0.11601097 0.01974965
0.042779528 0.019062957 0.009782782 0.08389191 0.1125781 0.28867263 -0.06300919 -0.20469368
-0.0034420309 -0.1320558 -0.02801165 0.0472384 -0.014995387 -0.08359214 -0.17654607 0.22042155
0.15335672 -0.1540961 0.088435024 -0.1749102 -0.010955177 0.20998247 0.053137753 0.04735894
-0.06963826 -0.2970938 0.060725465 -0.10769199 -0.06488625 -0.039274924 0.3672774 -0.20718503
0.20356569 0.03579338 -0.13841814 -0.04290333 0.11631841 0.06361685 0.21762727 0.028012332
0.21867432 0.09481292 0.052824855 -0.047760744 -0.12006057 -0.10631272 0.030235715 0.061278574
0.010430943 -0.2652096 0.032600928 0.21632624 -0.08251534 -0.13148728 -0.12701659 -0.20746161
0.053641036 -0.09787048 0.052510906 0.023752555 0.427896 -0.08951397 -0.05242869 0.03271403
0.01819397 -0.08020538 0.21064974 -0.10212792 -0.11167362 -0.20825663 -0.29630664 -0.068726026
-0.0874212 0.2202257 -0.06424503 0.20300835 0.091458246 0.15077744 0.06346479 0.12511016
0.09866716 -0.11120052 -0.055831525 0.17043945 0.08406524 -0.3387997 -0.02002068 -0.17711274
-0.055251066 0.11317654 -0.13534509 -0.30054146 0.07022151 -0.05548706 0.14363988 0.23652786
-0.03559714 -0.2527106 0.19893198 -0.06327505 -0.11493656 -0.06341438 -0.020282893 0.07088043
0.043799665 -0.10560273 0.06938717 -0.017127275 -0.13668412 0.21744217 -0.10196677 0.17688169
-0.08276198 0.08646618 0.0850371 -0.14454454 0.13820636 0.29016978 -0.14341132 -0.07539434
00000000: 5d0c 83be 6d5d 683d 3329 ef3d f34c cbbd
00000010: 83f7 b73d 78d8 ecbd 8edc 85bd 5bb8 5dba
00000020: 8a30 bd3c 57e2 b3bd 2874 213e 15e6 b8bc
00000030: abde 26be 5e96 e2be 4055 e5bd ce37 bfbd
00000040: 2c9b 84bd ffd6 9abd 5365 41bd 32b0 7dbe
00000050: 20e1 873d 1a74 aabd cea6 a6bd 7caf a03d
00000060: cf7e a4bd 0734 893d ebae 5939 1bd0 9ebd
00000070: ff7a 2d3e 6157 96be 51e1 31be b206 e1bd
00000080: 4888 273e 2162 0a3d 537f 14be 06b7 3f3e
00000090: 54d6 2cbc aed3 873d acca 4a3e 72ca 1a3e
000000a0: 2822 92bd 304e dcbd 9465 3c3e 8846 7dbe
000000b0: a816 8bbe de59 23be d1a8 2dbd 589f 3ebe
000000c0: 5369 5bbd cce1 36be 10f5 233e c94a 643d
000000d0: c0fc 923d 1665 d9bc 4008 2dbe f8d7 4b3e
000000e0: 2d2d 2dbe 17b3 393d f5d0 8b3e 1bb1 1ebc
000000f0: 4b4c 9f3c 4098 6cbe 96f5 a8bc 7679 2c3d
00000100: 7b80 d03d 4bbb a23b bbb6 3fbe f9e1 373d
00000110: 4162 613e 8d5d 60be 24a6 9dbd 769a 40be
00000120: 9f40 2f3c d811 3b3e a41b a3bd e9e7 a73e
00000130: 3502 b1bd 3009 6b3e bf69 d6bd 7a0a 483e
00000140: 7cf2 a53c 16b1 443e eccc a4bd 93ae 7a3b
00000150: 4e41 df3d aa88 4b3e fbb5 85bd 6a70 513d
00000160: 85e4 3a3e 6ae0 33be 85ae 733e 621c 12be
00000170: 9e78 75bd 52fa 36bd 51c2 213e 9aa6 543b
00000180: ba61 2c3e 5cff 9ebd b475 96be 5b59 853c
00000190: 31c8 22bd 4811 ae3d c6c4 45be f413 4dbd
000001a0: feca d4bd 2b7d d73d 7c9f 1fbe a3e7 0abe
000001b0: 46a0 40be 837b 503b b4bf 8e3d e259 833d
000001c0: 0158 94be 0f08 8cbe 2a45 42be 9f56 573e
000001d0: 1ce2 3e3d 4140 113e 5fc2 f13d 7240 423d
000001e0: 6f4b fabb 93a2 2e3e 0540 183d c381 af3c
000001f0: 206e fdbd 9648 7f3d 413a 74be b9f2 dcbd
00000200: f5db dcbe 1717 5bbe 4243 20be f495 80bd
00000210: 4af7 66bd 6577 523e 2997 ed3d 05ca a13c
00000220: 9639 2f3d eb29 9c3c f647 203c 86cf ab3d
00000230: 598f e63d e6cc 933e f60a 81bd 389b 51be
00000240: b293 61bb a339 07be b078 e5bc 0d7d 413d
00000250: 36af 75bc 5b32 abbd 7ec8 34be 30b6 613e
00000260: 8b09 1d3e 5ecb 1dbe 6c1d b53d a91b 33be
00000270: 587d 33bc a505 573e f9a6 593d 73fb 413d
00000280: 819e 8ebd ae1c 98be 44bb 783d 9e8d dcbd
00000290: 15e3 84bd bede 20bd c90b bc3e 5028 54be
000002a0: 8673 503e 149c 123d 7cbd 0dbe 67bb 2fbd
000002b0: 5938 ee3d 8d49 823d afd9 5e3e 1e7a e53c
000002c0: 29ec 5f3e 472d c23d e05e 583d c5a0 43bd
000002d0: 51e2 f5bd 7cba d9bd e4b0 f73c 3eff 7a3d
000002e0: 8ce6 2a3c 8dc9 87be 8d88 053d a084 5d3e
000002f0: cdfd a8bd 9aa4 06be a310 02be d170 54be
00000300: b4b6 5b3d 5170 c8bd ad15 573d b894 c23c
00000310: 2f15 db3e 1a53 b7bd 77bf 56bd 26ff 053d
00000320: 850b 953c b842 a4bd 91b4 573e 7128 d1bd
00000330: 24b5 e4bd 3a41 55be 81b5 97be 3bc0 8cbd
00000340: e309 b3bd d982 613e e692 83bd 6ce1 4f3e
00000350: 764e bb3d 6765 1a3e d4f9 813d e11c 003e
00000360: 0212 ca3d 19bd e3bd 99af 64bd ae87 2e3e
00000370: 662a ac3d 2777 adbe 6902 a4bc 0b5d 35be
00000380: f14e 62bd 1ac9 e73d e797 0abe 92e0 99be
00000390: 4cd0 8f3d 6646 63bd 5516 133e 5c34 723e
000003a0: 4fce 11bd 4963 81be d3b4 4b3e 5996 81bd
000003b0: dc63 ebbd 66df 81bd 4f28 a6bc c229 913d
000003c0: 4767 333d 3e46 d8bd dc1a 8e3d 804e 8cbc
000003d0: ecf6 0bbe 29a9 5e3e f4d3 d0bd 7920 353e
000003e0: 1d7f a9bd 2e15 b13d ee27 ae3d 7c03 14be
000003f0: f885 0d3e 2291 943e 6bda 12be 5968 9abd

bias f4 [96]
0.0 -0.012923212 0.0 0.047631767 -0.00011163836 -0.00036135362 0.015858438 -0.01371141
0.012803751 0.012912802 0.01187244 0.0 -0.012868886 0.013050572 0.0 0.050350666
0.010615289 0.0 0.0 0.0 -0.012945263 0.012929003 0.0 0.0
0.0 0.0 0.012941359 -0.034738727 0.0 -0.012909149 0.0 0.0
0.0 0.0029977583 -0.0019135667 0.0 -0.008446651 -0.0007887608 0.0 0.0
0.012919354 0.0 0.0 0.011480233 0.0 0.0 0.0 0.0
-0.013784337 -0.013160289 -0.012952107 -0.012906415 0.0 0.0 0.0 -0.00875645
0.0 0.013241697 0.016226102 0.0 -0.012944472 0.0 0.012961599 0.0
0.012932258 0.0018277087 0.012935897 0.0 0.0 -0.04134191 -0.045146152 -0.020443538
-0.02675902 0.0 0.0 -0.035212696 0.0 0.002383946 -0.008047014 -0.01294568
0.012896134 0.0 -0.0019380978 -0.02545865 0.016276736 0.0 0.011570963 0.012951582
0.0 0.047042962 -0.012942635 0.0 -0.0061002425 -0.012970392 -0.0017385397 -0.0041351356
00000000: 0000 0000 e1bb 53bc 0000 0000 8719 433d
00000010: 631f eab8 1074 bdb9 8ee9 813c d2a5 60bc
00000020: d3c6 513c 3890 533c 9f84 423c 0000 0000
00000030: 05d8 52bc 11d2 553c 0000 0000 803c 4e3d
00000040: c0eb 2d3c 0000 0000 0000 0000 0000 0000
00000050: 5e18 54bc 2bd4 533c 0000 0000 0000 0000
00000060: 0000 0000 0000 0000 fe07 543c 324a 0ebd
00000070: 0000 0000 e580 53bc 0000 0000 0000 0000
00000080: 0000 0000 0a76 443b a5d0 faba 0000 0000
00000090: d263 0abc d7c4 4eba 0000 0000 0000 0000
000000a0: b3ab 533c 0000 0000 0000 0000 9617 3c3c
000000b0: 0000 0000 0000 0000 0000 0000 0000 0000
000000c0: b3d7 61bc 419e 57bc 1335 54bc 6e75 53bc
000000d0: 0000 0000 0000 0000 0000 0000 3777 0fbc
000000e0: 0000 0000 b4f3 583c 9aec 843c 0000 0000
000000f0: 0d15 54bc 0000 0000 e35c 543c 0000 0000
00000100: d2e1 533c ba8f ef3a 16f1 533c 0000 0000
00000110: 0000 0000 2256 29bd 2ceb 38bd 3579 a7bc
00000120: bb35 dbbc 0000 0000 0000 0000 303b 10bd
00000130: 0000 0000 fa3b 1c3b 9fd7 03bc 1e1a 54bc
00000140: 4e4a 533c 0000 0000 c507 feba a98e d0bc
00000150: ca56 853c 0000 0000 2394 3d3c df32 543c
00000160: 0000 0000 1fb0 403d 590d 54bc 0000 0000
00000170: 8be4 c7bb c481 54bc b6df e3ba 0880 87bb

weight f4 [2, 96]
-0.30279586 -0.61298656 -0.3619069 0.32616374 -0.10329863 0.5848862 -1.2618103 1.3421866
-0.71945894 -0.6886608 -0.03303245 0.16576116 1.5577607 -0.092274345 -0.8483601 -1.2763959
-1.6079825 -0.46553448 -0.6611244 0.22858697 0.5704527 -0.6038494 -1.1531155 -0.23826636
0.72378767 -1.3860095 0.439627 -0.7428331 2.0049746 -0.18686558 -1.7152691 -0.6141621
1.0307627 1.0227567 0.67201245 -0.4126357 1.009986 -0.9457454 0.8334926 -0.08308055
-1.41796 -0.9274844 0.8084554 -0.2927635 -2.0869267 -0.9299581 -0.63982207 0.42553005
1.0269186 0.92006004 1.0107143 0.27196354 0.785556 -0.06624324 1.1755004 1.2115881
-0.6334551 -0.12902118 1.6241909 1.0533593 0.45745724 1.3173144 0.06375067 1.9724212
-1.0908386 0.6119659 -1.6800885 -0.20373814 2.1280017 -2.7735145 -0.0698012 -1.8607248
1.3737677 1.0259913 -0.7346259 -0.1068018 -1.0553292 0.17821783 0.14323361 1.2399417
-0.019114276 0.19378114 -1.1850128 1.8611114 1.8656199 -0.30169 0.09413873 -1.070083
-0.82613045 0.5968979 0.9183748 -0.71100354 1.0297825 -0.79414415 0.7584913 1.8826141
-0.14358036 -1.1692379 -0.78385967 -0.14441241 -1.2692482 0.51002425 0.6497735 -0.31682217
-0.6438661 0.041780666 1.4355096 0.27984717 -0.6220566 0.40898755 -1.0807106 -1.0183209
-1.0500894 -0.84315705 -0.88416874 1.4932997 0.024020344 0.40937245 -0.2955645 -0.74913937
-0.60535693 2.1828508 1.5949967 -1.8220512 -0.013564586 -0.3032214 1.9577506 -0.38954356
0.34140012 0.6108675 -0.40995824 -2.1466396 -0.20656359 -1.1673076 0.09651942 0.13440326
-0.11846754 -0.2534591 -0.7533627 1.4876505 -2.1722977 1.1825068 -0.55244625 1.3034008
-0.9201259 0.5437115 -0.53342205 0.14841798 0.061790586 1.3300067 2.5410552 -1.3694965
1.2131256 1.083656 0.32842898 0.3644099 -0.42272618 -1.3728119 0.34026182 0.7895442
-0.09446791 -1.5316182 -1.0556693 0.10910216 0.72838885 0.38527107 -0.6949147 0.46705577
0.2886116 -1.13248 -1.2460425 -1.3537567 0.7167857 0.012484414 0.1230632 -0.9608559
0.114808604 0.7860643 2.6269672 0.49099934 -0.6054343 -0.28078893 0.70717865 0.15895486
-0.7682933 -0.27958387 -0.20574734 -0.094947435 -0.26071668 -1.1390328 -1.195383 0.10765645
00000000: 0f08 9bbe b0ec 1cbf dc4b b9be effe a63e
00000010: 3b8e d3bd 1abb 153f 0083 a1bf c5cc ab3f
00000020: 762e 38bf 134c 30bf 094d 07bd 4bbd 293e
00000030: b464 c73f 55fa bcbd 212e 59bf f160 a3bf
00000040: 5fd2 cdbf 895a eebe 733f 29bf b412 6a3e
00000050: 3009 123f e095 1abf 4a99 93bf 19fc 73be
00000060: 264a 393f c268 b1bf ca16 e13e 4f2a 3ebf
00000070: 8151 0040 b159 3fbe f08d dbbf ba39 1dbf
00000080: 08f0 833f b1e9 823f 0209 2c3f fd44 d3be
00000090: 3947 813f 5f1c 72bf c55f 553f 2326 aabd
000000a0: b77f b5bf 9e6f 6dbf eff6 4e3f 19e5 95be
000000b0: 3590 05c0 bc11 6ebf 61cb 23bf 13df d93e
000000c0: 1272 833f 0e89 6b3f 165f 813f ce3e 8b3e
000000d0: 331a 493f 89aa 87bd cc76 963f 5215 9b3f
000000e0: 1d2a 22bf 211e 04be 7de5 cf3f 7ad4 863f
000000f0: d637 ea3e c29d a83f b68f 823d 4c78 fc3f
00000100: 99a0 8bbf cca9 1c3f 240d d7bf bba0 50be
00000110: 2e31 0840 4381 31c0 eef3 8ebd 3b2c eebf
00000120: 9fd7 af3f af53 833f 7110 3cbf e7ba dabd
00000130: 0715 87bf bc7e 363e d5ab 123e 69b6 9e3f
00000140: 8b95 9cbc 906e 463e 80ae 97bf e638 ee3f
00000150: a2cc ee3f 1d77 9abe cecb c03d 7bf8 88bf
00000160: 497d 53bf 4dce 183f 9c1a 6b3f 5404 36bf
00000170: eacf 833f 084d 4bbf 7c2c 423f 80f9 f03f
00000180: bb06 13be 96a9 95bf 07ab 48bf d9e0 13be
00000190: ba76 a2bf f390 023f 8e57 263f 8436 a2be
000001a0: 69d4 24bf 3422 2b3d c7be b73f 2148 8f3e
000001b0: 1a3f 1fbf d166 d13e ba54 8abf 5758 82bf
000001c0: 5469 86bf 24d9 57bf e258 62bf 7224 bf3f
000001d0: 50c6 c43c 4499 d13e 3b54 97be 99c7 3fbf
000001e0: acf8 1abf d4b3 0b40 da28 cc3f f938 e9bf
000001f0: ff3d 5ebc d63f 9bbe 9297 fa3f 4172 c7be
00000200: ffcb ae3e d061 1c3f 0ce6 d1be 8b62 09c0
00000210: 6885 53be 566a 95bf f9ab c53d 02a1 093e
00000220: 1c9f f2bd 64c5 81be 61dc 40bf 556b be3f
00000230: ed06 0bc0 625c 973f 1e6d 0dbf d6d5 a63f
00000240: 5f8d 6bbf ad30 0b3f 598e 08bf e2fa 173e
00000250: 2018 7d3d a93d aa3f a6a0 2240 a94b afbf
00000260: b347 9b3f 3db5 8a3f d827 a83e ef93 ba3e
00000270: 916f d8be 4db8 afbf cc36 ae3e 921f 4a3f
00000280: 6478 c1bd 110c c4bf 2c20 87bf f470 df3d
00000290: b177 3a3f 4042 c53e eee5 31bf ef21 ef3e
000002a0: e6c4 933e 1bf5 90bf 527e 9fbf e647 adbf
000002b0: 457f 373f 6d8b 4c3c 8f08 fc3d a7fa 75bf
000002c0: c620 eb3d 833b 493f 3b20 2840 4464 fb3e
000002d0: befd 1abf 91c3 8fbe a909 353f 10c5 223e
000002e0: dfae 44bf 9e25 8fbe 6eaf 52be cd73 c2bd
000002f0: a87c 85be d4cb 91bf 4f02 99bf fc7a dc3d

bias f4 [2]
-0.012939963 0.012939944
00000000: 2302 54bc 0f02 543c
