ML-Model/model_new.pth (torch, 4768 bytes, 4 tensors)

weight f4 [16, 20]
000000 a7 f9 8a 3e db ca 41 3f a5 dd a7 be 94 b9 0e 3f
       0.27143595 0.7570016 -0.3278629 0.5575192
000010 ac 6f f2 3e cb a7 54 3e c8 db 6e bf d4 d0 bf 3c
       0.47350824 0.20767133 -0.9330411 0.023415007
000020 99 8f 23 be 92 79 cc be fd 6b 66 bf 62 d4 ee be
       -0.15972747 -0.399365 -0.9000853 -0.4664641
000030 7c fb ef 3c f3 e1 ca 3e f1 c9 76 be ac 4b d8 be
       0.029294722 0.3962551 -0.24100472 -0.42245233
000040 0a bc 54 bf b5 92 2f bd ce e5 7e be 70 b4 15 3d
       -0.83099425 -0.04286452 -0.24892351 0.03654903
000050 b8 8d 08 bd 1c e8 00 3f 31 54 3c be ef f7 d7 3e
       -0.03333828 0.5035417 -0.18391491 0.42181346
000060 7f d0 a3 be 37 a2 1b 3f 84 61 d6 be 44 84 55 bf
       -0.31995007 0.60794395 -0.41871274 -0.83404946
000070 41 06 18 3f f2 67 9c bd d1 3a 96 3e 7f 6c ac 3e
       0.5938454 -0.076370135 0.29341748 0.33676526
000080 b5 cd a4 bd 40 2d 99 bc 79 02 05 3f cb ee 8e be
       -0.08047048 -0.018698335 0.519569 -0.2791656
000090 c1 90 a6 be 38 81 c2 3e 4c be c7 3e bc 97 34 be
       -0.32532313 0.3798921 0.39012372 -0.17636007
0000a0 82 31 a4 3e 3a f0 48 3d 9a 8f 27 bd a3 b9 a4 3e
       0.3206902 0.049057223 -0.040908433 0.3217288
0000b0 9e ea ac bd 86 6c b8 be 2d fd fb bd 93 e9 05 bf
       -0.08443187 -0.36020297 -0.12304149 -0.5230953
0000c0 5e 5f e8 3d 13 7b fb 3e 9a c9 67 be d4 fd ce bd
       0.11346315 0.49117336 -0.22635499 -0.101070076
0000d0 eb e7 c2 3d d3 3f 3f bf 12 ee e7 3e 10 62 08 3f
       0.09516891 -0.74706763 0.4529882 0.5327463
0000e0 43 eb 17 3e 16 23 f9 bd 88 fd 08 3f c7 4d 08 3c
       0.14835839 -0.12164895 0.5351186 0.008319325
0000f0 47 dd a7 3d 59 a6 37 bf 20 2c 3a 3f 87 b3 0d bf
       0.08196502 -0.717382 0.7272358 -0.5535206
000100 23 89 64 bf d0 a1 8d 3e 20 d6 9f 3d e3 b9 9a be
       -0.89271754 0.27662516 0.07804513 -0.30219945
000110 4a 40 28 be 3a 23 12 bf 6b 14 11 bf b8 0c dd 3e
       -0.16430774 -0.57085 -0.5667178 0.43173766
000120 25 4d c8 bd 75 5e a3 be dd 81 09 be fd c7 1d bf
       -0.09780339 -0.31908002 -0.13428445 -0.6163328
000130 9b 12 bf be fc 66 89 3d 27 96 21 be ae ac 50 be
       -0.37318882 0.06709096 -0.15779935 -0.20378372
000140 86 56 27 be e4 6a fc 3d bb dc ce bc 5c 74 41 bc
       -0.163416 0.12325075 -0.025251737 -0.011807527
000150 02 a2 5d 3e 7c 08 eb 3e a6 53 ec 3e 42 f1 34 bf
       0.21643832 0.4590491 0.4615757 -0.7068063
000160 35 db bf 3e ce 59 b8 bd ce ca d3 3c 66 22 d9 be
       0.3747193 -0.09001504 0.02585354 -0.42409056
000170 5d 0f 80 be 99 f0 af be 6b c9 c7 be c4 ff 86 3e
       -0.2501172 -0.3436325 -0.39020857 0.2636701
000180 4b bf 5c bd 7a d8 9c 3d a1 f4 f4 bd 0e cf 24 be
       -0.05389337 0.07658477 -0.11960722 -0.1609461
000190 b5 dd df 3e 42 51 94 bd 12 9d 2b be c8 23 b9 be
       0.43723837 -0.07242061 -0.16759136 -0.3616011
0001a0 0c 8e 91 be 54 49 f1 3e 92 e1 85 be 08 84 60 3f
       -0.28428686 0.47126257 -0.2614866 0.87701464
0001b0 e1 c6 1a 3c fe 20 8c 3d 1f fe 89 bc 49 f0 51 3e
       0.0094468305 0.0684223 -0.016844807 0.20501818
0001c0 05 e1 c2 3e 16 be 09 bd 71 9b 12 bf b1 05 06 3f
       0.380623 -0.033628546 -0.57268435 0.52352434
0001d0 78 15 b8 be e9 69 99 bd 53 d4 99 3e bf 66 f7 be
       -0.3595388 -0.07490904 0.30044803 -0.48320577
0001e0 6f 7e 57 be 8f 10 08 be 52 d1 b8 be a2 4b d6 3d
       -0.21044324 -0.13287567 -0.360972 0.104636446
0001f0 1c 48 82 3e f4 3b 55 3e 16 66 80 3e 7e bf 08 be
       0.2544564 0.20823652 0.25077885 -0.13354298
000200 65 4f ae 3e 05 0f 35 be 8f dd c3 3e a1 81 67 bd
       0.34044948 -0.17681511 0.38254973 -0.056520108
000210 2d 1a 0a bf ee 25 d1 3e 34 76 5b 3e f8 27 75 be
       -0.5394619 0.4084925 0.2143181 -0.23941028
000220 27 66 dd 3e 7a 17 0a 3d 04 3d 5a bf d9 7f 90 bd
       0.43242 0.033713795 -0.8524935 -0.07055635
000230 3a 27 8a be e1 73 a9 be cf 88 dd be 59 3d bd 3e
       -0.26983052 -0.3309622 -0.4326844 0.36960867
000240 cc c7 cb be 2f 48 3d be 0c 5d ce 3d 57 6a 7d 3e
       -0.3980087 -0.18484567 0.10076341 0.24747597
000250 85 93 19 3d 2f 71 3c be a6 6c 59 3e 32 24 ab bc
       0.0374942 -0.18402551 0.21232852 -0.020891283
000260 19 ff d1 3c a5 b4 48 3f a1 7c a9 3d 2b 7b 37 be
       0.025634335 0.7840064 0.08275724 -0.17918079
000270 39 b3 09 3f 7f 79 58 be 33 a7 bd 3e 6a 74 9c 3e
       0.537891 -0.21140097 0.37041625 0.30557567
000280 76 90 8e be 2d 5c 7d 3e 45 3b 48 bf 46 7b 2c 3e
       -0.2784459 0.24742194 -0.7821544 0.168439
000290 b6 0b cd 3c 72 53 2c 3e 1a 2c 38 bf 02 b2 3b bc
       0.025029998 0.16828707 -0.71942294 -0.011456015
0002a0 32 ab 90 be 97 ef d4 3e 87 96 38 3c 6f 79 a0 bd
       -0.28255612 0.41589043 0.011266357 -0.078356616
0002b0 d1 13 37 be 55 15 14 be 3c 83 7a 3d 39 39 a7 3d
       -0.17878653 -0.14461263 0.06116031 0.08165211
0002c0 78 ab ff 3e 54 71 9a be 11 78 ae bc fa 08 a1 3e
       0.49935508 -0.30164587 -0.021297486 0.3145216
0002d0 b1 aa 37 3f 31 9e 69 be df 93 af be 5c ec 55 bf
       0.7174483 -0.22814251 -0.34292504 -0.8356378
0002e0 a6 a9 39 3e b8 89 b8 be 64 cf b5 be ec 0d 2e bf
       0.18131122 -0.3604257 -0.3550979 -0.67989993
0002f0 33 38 0a 3f 95 0b 00 3f 22 26 17 be 2b c3 02 be
       0.53992003 0.5001767 -0.1476064 -0.12769763
000300 51 2a 85 be 03 11 7c 3e 3f 9b 1f 3e 2c 7c 4d be
       -0.26008847 0.24615864 0.15586565 -0.20066899
000310 0a 26 29 be 59 3d 5f 3f 3b 49 6c 3d 88 82 b8 be
       -0.16518417 0.87202984 0.057687026 -0.36037087
000320 09 fc 22 3e 0d ce f8 bd 25 37 1a 3d 76 34 0b bf
       0.15916456 -0.12148676 0.037650246 -0.54376924
000330 c5 aa c9 3e cb 91 53 3e 86 01 13 3e 10 94 b8 3e
       0.393881 0.20661084 0.1435605 0.36050463
000340 67 c9 93 be f4 22 ac 3d ba b8 c8 be fd 84 76 3f
       -0.28864595 0.08405104 -0.39203435 0.96296674
000350 65 d7 d1 3e 08 de a8 be bc 56 c7 bd c8 a1 3d bf
       0.40984645 -0.32981896 -0.0973334 -0.74074984
000360 e0 c5 13 3e 1a e3 61 3d 5e 0d 16 3f 40 70 99 3c
       0.14430952 0.05514822 0.58614147 0.018730283
000370 3e f9 06 3f 7e ec e9 3e 75 ad 19 3f 5b ef f1 3e
       0.52724063 0.45688242 0.600303 0.47252926
000380 a3 c5 6c 3d 44 be ae 3e b1 f5 fc 3d 10 5a cb 3e
       0.05780567 0.34129536 0.123515494 0.3971715
000390 01 2c 46 3f 47 3e 2c 3f 3f 1e 92 bd e8 8b a4 be
       0.77410895 0.6728253 -0.07134675 -0.3213799
0003a0 2e 87 5c be 24 19 9b 3e 8a 41 d5 3d 26 a6 77 3e
       -0.21535942 0.30292618 0.10412891 0.24184474
0003b0 64 05 62 be c8 a3 55 3e c1 d7 2e 3c ed 00 45 3e
       -0.22072369 0.20863259 0.010671557 0.19238634
0003c0 40 45 8d 3d bf 9d b6 bd db bd ed 3e 3e af 3b bf
       0.06897974 -0.089168064 0.4643391 -0.73314273
0003d0 0c 23 b5 3e 1b 9d 2d 3c 89 16 7c be 96 11 66 bf
       0.353783 0.010596539 -0.24617971 -0.89870584
0003e0 77 16 9c 3e 5a bd 9b 3d c3 5b 5a be 89 5b dc bd
       0.3048589 0.07604475 -0.21324067 -0.107596464
0003f0 bc e6 e2 ba 2c f4 c4 be 61 00 18 3e 17 d9 68 3e
       -0.0017311196 -0.38467538 0.14843895 0.22739063

bias f4 [16]
000000 0c 02 7e 3b e6 e2 30 3c 9d 5d 2a bc 1a 54 62 3a
       0.0038758544 0.010796284 -0.010398296 0.0008633748
000010 5d f4 5a bb 00 00 00 00 26 d4 2a bc c1 b5 2a bc
       -0.0033409812 0.0 -0.010426557 -0.01041931
000020 81 a4 22 3c 4f 2c b4 ba 00 00 00 00 8d c7 2c 3c
       0.009926916 -0.0013746115 0.0 0.0105456235
000030 00 00 00 00 3d 07 25 bc 9e 93 2c 3c 5e b9 2a bc
       0.0 -0.0100725265 0.010533242 -0.010420172

weight f4 [2, 16]
000000 c1 5b 5a 3e 3b 11 39 3e 23 7e 28 3e cc 7f 0d 3f
       0.21324064 0.18072979 0.16454367 0.5527313
000010 92 41 10 3f f9 2c 05 40 90 0f cd 3f a6 f8 db bc
       0.5635005 2.08087 1.6020374 -0.026851963
000020 9f fe 1a bf 53 6e 00 3d 5a cd bd 3f 47 f9 98 be
       -0.6054477 0.031355213 1.4828293 -0.29877684
000030 18 93 c9 bf 1e 7b 43 3e 79 fd 9f bf 97 66 4d 3e
       -1.5748014 0.19089934 -1.2499229 0.20058666
000040 86 64 9a 3f b9 53 aa 3e 91 e0 25 bf 2d 24 27 be
       1.2061927 0.33267 -0.64795786 -0.16322394
000050 1b ef 3b bf c6 3b a3 bf 67 6b da bf b5 02 ad bf
       -0.7341172 -1.2752616 -1.7064027 -1.3516451
000060 00 80 b7 be dd 4d a5 3e f5 09 cd 3f 80 74 57 3e
       -0.35839844 0.32285967 1.6018664 0.21040535
000070 7a d5 f0 3f 32 dc b4 bf 67 b0 24 bf 9b a6 94 bf
       1.8815148 -1.4129698 -0.6433167 -1.1613344

bias f4 [2]
000000 10 43 2b bc 10 43 2b 3c
       -0.010453001 0.010453001
